PowerSyn/RL/sources/model_glitch/policy.pth (torch, 94849 bytes, 11 tensors)

mlp_extractor.policy_net.0.weight f4 [64, 102]
000000 dd d1 3b 3d 58 67 0b 3e ec 6f 24 be a0 24 8a 3d
       0.045854438 0.13613641 -0.1605832 0.06745267
000010 f0 89 01 be 58 69 b2 3d dd 24 35 bd ad ce 8f be
       -0.12650275 0.08711499 -0.04422461 -0.2808737
000020 d5 c5 de 3d 65 a3 84 3b 17 90 ca bd 5e d9 11 3d
       0.10877577 0.0040477985 -0.09890764 0.035607688
000030 fa 01 96 3d be 53 a8 be e0 06 29 bd fb e4 d1 bd
       0.07324596 -0.3287639 -0.041266322 -0.10248753
000040 9d 26 20 3e 03 32 62 3d 35 3f ef be 0d fa df 3d
       0.1563973 0.055223476 -0.4672791 0.10936365
000050 00 36 55 bd 76 da 47 be e1 d4 14 be 42 c5 8a 3d
       -0.05205345 -0.1951693 -0.14534332 0.06775905
000060 62 9a 89 3c 79 f6 61 bd 9e dc dc 3b 3d 16 94 be
       0.016797248 -0.055166695 0.006740167 -0.28923216
000070 5f f4 43 3e 04 bd 92 3d 99 4c 1e be 97 92 ea bc
       0.19136189 0.07164958 -0.15458907 -0.028634353
000080 e6 98 9b 3c a7 b1 d7 3c fe a8 b8 3d 16 56 85 3d
       0.018993806 0.026329828 0.09016608 0.0651056
000090 b0 3b 81 3e c6 79 55 3e 3e 7e 60 bd 52 4b a6 3d
       0.2524085 0.20847234 -0.054807894 0.08119835
0000a0 bb 1b d8 3c 90 d4 d0 bd 24 ee a6 3c 5d 7f 3b be
       0.02638041 -0.10196793 0.020377226 -0.18310304
0000b0 e8 c6 07 bd 99 f9 1c bd df c2 ac bc cd b7 00 bc
       -0.033148676 -0.038323972 -0.021089016 -0.0078563215
0000c0 f6 91 71 3c 0e ff 1a 3d be 2a b6 3d 5c b6 9d bd
       0.014744272 0.037840895 0.08894871 -0.07700798
0000d0 6f 43 50 bd 96 9f 3c 3c 39 36 65 be 54 97 a8 bb
       -0.05084556 0.011512658 -0.22383966 -0.005144993
0000e0 cd d2 20 be 3a b2 1c be ee 7c 40 be 72 da 63 bd
       -0.15705414 -0.15302363 -0.18797657 -0.055628248
0000f0 bd eb c9 3d 7d 9d 9b 3e 0d 6c af 3d f5 91 04 3e
       0.09859417 0.30393592 0.08565531 0.12946303
000100 37 1b 45 3e 45 b6 ff bd a9 e8 49 3e 5c 10 09 be
       0.19248663 -0.12485937 0.19717659 -0.13385147
000110 08 aa fd bd ff 80 bd bd b7 c4 ba 3b 3c e7 59 be
       -0.123859465 -0.0925312 0.00569972 -0.21279615
000120 7e ac bc bc 4a b0 6d 3d f9 f6 6e 3e 5f a9 d0 3d
       -0.02303147 0.05802945 0.233364 0.10188555
000130 e0 d5 6e bd 5c a6 0d 3e 58 96 d9 bd e5 a4 b0 3d
       -0.058309436 0.13832992 -0.10624379 0.08625201
000140 94 4b bf bd da d6 90 bd 95 42 11 3d b5 db 2c be
       -0.09340587 -0.0707223 0.03546389 -0.16880687
000150 82 0c 45 bd 09 b3 40 bd 13 2f 9b bd 9f e7 6d 3e
       -0.04810763 -0.04704574 -0.07577338 0.23232888
000160 b6 f4 99 3e b4 a0 e4 3d 93 b4 41 bd ac c7 98 3e
       0.30069512 0.11163464 -0.04729135 0.29839838
000170 53 2f 35 3e 15 b8 79 be 63 46 dc 3c 04 fa b6 bb
       0.17693834 -0.24386628 0.026889032 -0.0055840034
000180 17 eb d8 3d bf 77 f7 3d 48 9c ce 3d 3d 54 38 3e
       0.10591715 0.12083387 0.10088402 0.18000884
000190 46 90 2b 3d aa 51 a0 bd 1f a3 c6 3c e9 d5 1e be
       0.041885637 -0.07828076 0.024247704 -0.15511288
0001a0 ee c6 32 be 9e b0 53 be 40 72 13 be d5 8a 75 bd
       -0.17458698 -0.20672843 -0.14399052 -0.059946854
0001b0 f9 61 9f bc 43 a3 48 bd 27 fb 94 3d 3b 2b 2d 3d
       -0.019455897 -0.048983824 0.07274466 0.042277556
0001c0 b7 45 ff bd e8 6f 85 3d 41 ce 11 bd e1 7b 6c 3e
       -0.12464469 0.06515485 -0.03559709 0.23094131
0001d0 6c 0f ab be 8f 2c 21 be cd b7 2f bd 27 b1 47 be
       -0.33410203 -0.15739654 -0.042899895 -0.19501172
0001e0 11 a3 5d 3c 78 06 47 bd 9d c7 8e 3d 47 ea 5d bc
       0.013527648 -0.048590153 0.06971667 -0.013544626
0001f0 b2 37 79 ba 3e 4c 24 be c0 59 28 3e 22 5d ec 3d
       -0.00095068954 -0.16044709 0.16440487 0.11541201
000200 5f c4 9f bd 55 7d 55 be 59 62 91 3e e7 e2 e8 bd
       -0.07801127 -0.20848592 0.28395346 -0.11371403
000210 76 78 92 be cb fe 41 3d 7d 44 48 3d d1 a9 80 bd
       -0.2860753 0.04736213 0.04889344 -0.0628239
000220 41 2a 74 3d 29 38 47 be 7b 04 4c be 77 1a 68 be
       0.05961061 -0.19455017 -0.19923584 -0.22666346
000230 65 87 ce bd 25 14 64 3e 94 9c b2 3d a3 52 9c 3e
       -0.10084418 0.2227331 0.08721271 0.30531797
000240 20 e5 02 be 80 6f 0a be 4d 01 44 3e 85 99 50 be
       -0.12782717 -0.13519096 0.19141121 -0.20371063
000250 d3 86 37 be 98 7a 57 3d 3c 8d de 3c 78 a3 34 3d
       -0.17922525 0.05260715 0.027166955 0.04410121
000260 3f 49 9d 3d ee b5 5e 3d 1d 85 89 3e 4e 7a 1d 3d
       0.07679986 0.05437272 0.2685937 0.038446717
000270 40 44 b0 bd e0 e4 41 bd de 67 d1 bd 9f 37 46 3e
       -0.08606768 -0.047337413 -0.10224889 0.19357155
000280 7c 88 12 bd 84 42 21 be a8 e8 41 3c 4a aa 21 bd
       -0.035774693 -0.1574803 0.011835255 -0.03946904
000290 78 04 5b be 92 3f e8 bc eb da 0c be 5e 05 0a bd
       -0.21388423 -0.028350625 -0.13755386 -0.033696525
0002a0 8f c4 10 be 69 35 57 bc 14 bd 25 bd 8d 61 34 3e
       -0.14137481 -0.013135293 -0.040463522 0.17615338
0002b0 b1 23 e0 3b 8b 42 28 bd 5e 6c 14 3e e4 02 85 3d
       0.0068401922 -0.041079085 0.14494464 0.06494692
0002c0 c3 39 4b 3e 79 00 53 3d 31 b7 12 be aa f3 3a bd
       0.19846253 0.051514123 -0.14327694 -0.045642532
0002d0 63 37 4f be 15 e5 21 be f0 64 0b be a8 e5 5e bc
       -0.20235972 -0.15810044 -0.13612723 -0.013604559
0002e0 e1 d1 73 3e 0a d6 0d 3e 58 3f 06 be d6 ff 2d bd
       0.23810531 0.1385118 -0.13110101 -0.042480312
0002f0 e4 68 39 3e d0 e4 fe 3d 33 81 5a bd e8 45 04 be
       0.18106419 0.12445986 -0.05334587 -0.12917292
000300 cd 59 6e bd c2 ae 34 be 2d 1f 31 3c a1 60 72 3d
       -0.05819111 -0.1764479 0.010810656 0.059174184
000310 a0 ea e8 3d ce 02 91 bc ef 8e 5d 3e d0 fc 13 3e
       0.11372876 -0.017701533 0.21636556 0.14451909
000320 f0 8c 46 be 70 cd 7c 3e 62 6a 12 be 49 7f 48 bd
       -0.19389701 0.24687743 -0.14298394 -0.048949514
000330 9f 91 63 bd 65 fc 53 3e 09 51 da bd 9f bf d0 3c
       -0.055558797 0.2070175 -0.106599875 0.025481997
000340 8d 44 b5 bd e2 e0 52 3d 86 02 07 be e5 66 f7 ba
       -0.08850966 0.051483996 -0.13184556 -0.001887527
000350 ad a1 f7 bd aa 52 fe bc 0e 8d 6f 39 8f d7 04 be
       -0.12091384 -0.031045277 0.00022845363 -0.12972854
000360 a2 ca 5f 3e 6a 5e 18 bd e8 38 87 be e6 53 aa bc
       0.21854642 -0.037199415 -0.26410604 -0.020791959
000370 84 4f fd 3d ce 76 36 3e ca 8b e4 bd db 98 d9 3d
       0.12368682 0.17818758 -0.11159475 0.10624858
000380 43 ef 01 3c 21 79 15 3e 89 a7 37 3e 7f 25 19 bd
       0.00793058 0.14596988 0.17935003 -0.037389275
000390 4c d0 4f be d4 31 0c 3e eb ae a2 3e f7 a0 98 3c
       -0.20294303 0.13690883 0.31774077 0.018631442
0003a0 6f 82 1b 3e c5 c8 f5 3d d8 c8 94 bd 2f be 38 3d
       0.15186475 0.120011844 -0.072648704 0.04510325
0003b0 df 0f bb bd a1 d9 28 bd bf ca 5f be 90 4f 43 be
       -0.091338865 -0.041223172 -0.21854685 -0.1907332
0003c0 ae ff 82 3e 27 51 2a be d0 61 9d 3e 25 7e af 3d
       0.25585693 -0.1663252 0.30738688 0.08568982
0003d0 42 a6 7f be 3f d5 6c 3d e2 d0 c3 bd a4 12 00 be
       -0.24965766 0.057820555 -0.095613256 -0.12507111
0003e0 c8 50 87 bd 2a 90 0a 3e 71 ab ac 3d af ff 4a be
       -0.06607205 0.13531557 0.08431137 -0.19824098
0003f0 e1 a5 af 3d a0 73 68 3e e4 0c 75 3d b7 22 c8 bd
       0.08576561 0.22700357 0.059826747 -0.09772246

mlp_extractor.policy_net.0.bias f4 [64]
000000 f5 f8 e0 b8 00 00 00 00 4f de a2 3a af 4e c1 bb
       -0.00010727524 0.0 0.0012425872 -0.0058992724
000010 64 86 f1 39 00 00 00 00 00 00 00 00 28 f1 74 b4
       0.0004606723 0.0 0.0 -2.2812003e-07
000020 00 00 00 00 00 00 00 00 00 00 00 00 00 00 00 00
       0.0 0.0 0.0 0.0
000030 7f 01 22 3b 70 df c4 3b 00 00 00 00 ca c9 44 ba
       0.002472013 0.006008081 0.0 -0.00075068756
000040 2e 77 b5 ba 0d e8 51 3b 1e f7 9d 38 e1 10 79 bb
       -0.0013844722 0.0032029182 7.5323725e-05 -0.0038004445
000050 b8 65 23 b9 0c 2d 21 bc da 28 83 32 d2 80 76 b1
       -0.00015582785 -0.0098374 1.5268984e-08 -3.5870937e-09
000060 0d 4d 89 3a fa f6 a3 b8 9b 15 a3 bb 00 00 00 00
       0.0010475233 -7.818449e-05 -0.004976941 0.0
000070 00 00 00 00 00 00 00 00 00 00 00 00 00 b4 3f 3a
       0.0 0.0 0.0 0.0007312894
000080 00 00 00 00 bf ee b3 b9 f6 a2 82 3b ba 36 21 bb
       0.0 -0.0003431942 0.0039867116 -0.002459927
000090 00 00 00 00 41 b3 dd ba 06 63 d0 3b b0 a8 97 b8
       0.0 -0.0016914384 0.0063594608 -7.2316616e-05
0000a0 37 bb 79 3b 00 00 00 00 a9 b1 bb 3a 00 00 00 00
       0.0038105974 0.0 0.0014319915 0.0
0000b0 d5 b6 38 bb 00 00 00 00 00 00 00 00 00 00 00 00
       -0.0028185148 0.0 0.0 0.0
0000c0 6a 13 d0 bb 48 2b ee 3b 00 00 00 00 1a a1 9d b0
       -0.0063499706 0.007268343 0.0 -1.1469041e-09
0000d0 4d 43 b5 3a 55 b3 2c ba 00 00 00 00 41 24 b6 b0
       0.0013829261 -0.0006588002 0.0 -1.3252547e-09
0000e0 6d 64 5a 3a ff 98 a7 39 d5 fc be b3 19 99 43 bb
       0.00083310046 0.00031966713 -8.893554e-08 -0.0029845892
0000f0 8d ed 2b bb 00 00 00 00 4e 7a f1 3b 47 d6 a4 3a
       -0.002623412 0.0 0.007369316 0.0012576067

mlp_extractor.policy_net.2.weight f4 [64, 64]
000000 85 47 51 be 92 75 a5 be e6 05 37 3d 94 9c 0c be
       -0.20437439 -0.32316262 0.04468336 -0.13731605
000010 f6 80 6d 3e fa e5 fb bd 3e fc c5 bd b8 98 b5 bd
       0.23193726 -0.12299724 -0.09667252 -0.088670194
000020 6e 81 5b be 5a 92 fd bd 88 db 49 3e 28 d2 b6 bb
       -0.21436092 -0.1238143 0.19712651 -0.005579252
000030 77 5b 0e be 85 ec 9c 3d 13 76 c3 bd 0f ea 56 3e
       -0.13902079 0.076623 -0.09544005 0.20987724
000040 24 f2 a8 3c 2d 23 86 3d 94 ba 10 be 8b fe ab 3e
       0.020623274 0.06549678 -0.14133674 0.33592638
000050 51 a5 80 3c 07 d0 d1 3d 36 52 be 3d 59 51 52 3d
       0.015703829 0.10244756 0.09293024 0.05134711
000060 6e 10 94 3d 25 8f ab bd e7 87 92 3d a5 80 b5 bd
       0.07229696 -0.08376912 0.071548276 -0.088624276
000070 37 d4 8a be 48 ed 6d be fb a8 ad 3e 55 b0 b8 be
       -0.27115032 -0.23235047 0.33917984 -0.3607203
000080 c5 77 96 3d a0 85 c2 bd 50 07 09 3e 29 78 d7 bd
       0.07347063 -0.09498143 0.13381696 -0.105209656
000090 6a 43 2d be 35 e9 88 be 6b ba 22 3d 06 17 0e bd
       -0.16920248 -0.26740423 0.039728563 -0.034689926
0000a0 cc 2b 2e be 43 a9 86 3e 2b c8 39 3d 44 4b 0e 3e
       -0.17008895 0.2630101 0.04535691 0.13895899
0000b0 92 c9 93 3e da f2 35 be 11 96 cf 3e 89 a8 a3 3d
       0.28864723 -0.17768422 0.4054418 0.0799113
0000c0 09 9d 28 be e4 4e 83 bd ff 3c af 3e d4 6a 57 bd
       -0.16466154 -0.064115316 0.34226224 -0.052592114
0000d0 57 bc 8b bd be f0 f0 3c a6 8a a5 3d d9 60 8a 3d
       -0.06823032 0.02941167 0.08083086 0.067567535
0000e0 f4 b3 60 be 38 44 32 be 6a 8b 73 3e c2 1e 8b 3c
       -0.21943647 -0.17408836 0.23783651 0.01698244
0000f0 51 76 9a 3e e6 1c 7e 3c b0 3a 87 be 42 67 56 3e
       0.30168393 0.01550982 -0.26411963 0.20937827
000100 71 f0 5f be 0d ec 24 3e 46 71 8c be 70 8c b6 3e
       -0.21869065 0.16105671 -0.2743017 0.3565402
000110 6a 3b d5 3d ec 7d 6f 3b 9c 9e 97 3d 64 37 30 3e
       0.10411723 0.003654356 0.07403299 0.1720863
000120 8e cc 46 be dc 2e 13 3e 61 44 a7 be 3b c3 0a be
       -0.19413969 0.14373344 -0.32669356 -0.13551037
000130 3b 87 c4 bd df 12 c6 bd 98 b6 13 3e 70 35 7c be
       -0.09596106 -0.09671568 0.14425123 -0.2462976
000140 09 38 a4 bd 96 e2 1a 3e 3e e9 8d 3e 9d 5c 09 be
       -0.080185 0.15125498 0.27717012 -0.13414235
000150 9c 41 bd be 59 a3 68 bd c4 d4 3f 3d 71 25 e0 3d
       -0.36964118 -0.056796405 0.04683377 0.109446414
000160 11 6c b9 be e1 43 7f bd e2 b4 92 3e e5 0e 66 be
       -0.3621526 -0.062320594 0.28653628 -0.2246662
000170 0d 21 b5 bd fc 88 4a 3d 43 05 44 be a6 9e 33 be
       -0.088441946 0.049447045 -0.19142632 -0.17540988
000180 5c b3 16 be 47 9c 60 be cc 56 cc 3d 5c 78 4f be
       -0.14716858 -0.21934615 0.09977493 -0.20260757
000190 1e de e6 3c 9f 2d 1b be e5 86 84 3e ff b5 e7 3e
       0.028182086 -0.15154122 0.25884166 0.4525604
0001a0 f6 09 dc 3d e2 a4 7d 3e cb 25 0b 3d d3 c2 31 be
       0.107440874 0.24769929 0.03397159 -0.17359476
0001b0 3b f4 94 3d d1 08 09 be d3 b2 1f 3e 78 ac 36 be
       0.07273146 -0.1338227 0.1559556 -0.17839229
0001c0 59 78 3a be cb 57 37 bc db 9e df bd f6 f8 69 be
       -0.18209971 -0.011190365 -0.10918971 -0.22848877
0001d0 81 dd 99 3d 63 13 e0 3d 4e c8 51 3e 49 6a 9a bb
       0.07512952 0.10941198 0.20486566 -0.004712377
0001e0 88 65 e9 3d 34 27 69 bc 16 22 3c 3e 68 e5 67 3d
       0.11396319 -0.014230538 0.18372378 0.056615263
0001f0 e8 56 db bb 87 ea fe 3c 8e 48 80 bd 29 d3 d6 ba
       -0.0066937096 0.03111769 -0.06263839 -0.0016389835
000200 b3 67 71 bd b8 a6 53 3d 6a 78 76 be 83 86 18 be
       -0.058936786 0.051672667 -0.24069372 -0.14895062
000210 8e 42 ce 3d fb 01 58 bd bf c3 59 3e e4 8f 15 3e
       0.10071288 -0.052736264 0.21266077 0.14605671
000220 af ee 4d 3e 1f a7 af bd 75 75 15 be 40 99 67 3c
       0.20110582 -0.08576798 -0.14595588 0.014135659
000230 9f 08 38 be b9 6b 58 3e 86 8a 5e bb 13 d0 5a 3e
       -0.17972039 0.21134843 -0.0033957078 0.21368437
000240 6b a3 38 be fb 8d 22 3c 02 af a2 3e 0c 87 3d 3e
       -0.18031089 0.009921546 0.31774145 0.18508548
000250 d9 98 a4 bd 58 02 fd bd 0d 7b aa 3e d9 37 6b 3e
       -0.08036966 -0.12353963 0.33297005 0.22970523
000260 4e 77 f4 bc 22 c3 f6 3d 00 ed 50 bd 18 07 43 bd
       -0.029842045 0.120489374 -0.05100727 -0.047614187
000270 3c 41 aa 3e 3c d6 09 bf aa b4 0b 3d a9 49 56 3e
       0.33252895 -0.5384252 0.03410784 0.20926537
000280 94 a3 34 be ad 7a b4 3d 04 08 76 bd a4 47 03 3e
       -0.17640525 0.08812461 -0.060066238 0.12820297
000290 bb 36 61 be f8 cf 0b 3e 75 22 e6 bd 2f 23 84 be
       -0.21993534 0.13653553 -0.11237041 -0.25808093
0002a0 f4 44 6b be fb 9a ef bd 30 8a 94 bd 40 16 71 be
       -0.22975522 -0.11699482 -0.0725292 -0.23543644
0002b0 ac 1d 03 3d 15 a6 b8 bd f4 ad 59 3d 49 61 99 be
       0.03201072 -0.09016053 0.05314441 -0.29957035
0002c0 ed 70 66 bd b0 44 b5 be f8 ec f2 3d 9e de 32 3d
       -0.05626004 -0.35403967 0.118616045 0.043669336
0002d0 41 ed 97 3e da ec 39 be bc 99 05 3d ec b5 ee bd
       0.29673198 -0.18156758 0.032617316 -0.116557926
0002e0 46 93 34 3e 40 a0 38 bd 9a 30 67 bd dc c5 b3 3d
       0.17634305 -0.0450747 -0.056442834 0.08777973
0002f0 72 0a 5d bd c8 97 9f be 17 00 f9 bc 08 94 4a bd
       -0.05396504 -0.31170487 -0.03039555 -0.04945758
000300 12 43 43 3d 8f 47 9b be 82 8d 9f bd 73 b1 92 3e
       0.047671385 -0.30328032 -0.07790662 0.28651008
000310 1f b2 1a be 4c 79 29 3d f4 88 e3 bc 64 8b 95 bd
       -0.1510701 0.041375443 -0.027775265 -0.07301977
000320 89 8b ac bd 2c b9 c9 3e 1d a2 9f 3d b7 f2 63 3c
       -0.08425052 0.39399087 0.077945925 0.013912848
000330 64 eb 18 be 69 8f 11 3e f0 c1 a3 be 5f 0f b5 bc
       -0.14933544 0.14214863 -0.319839 -0.022102056
000340 76 c0 03 be a2 1e 51 bd 93 ed 48 3d 1a 35 12 bd
       -0.12866387 -0.051054604 0.049054693 -0.035695173
000350 0b 2d 36 3e 9e 75 cc be c8 5a 47 be e2 3b 0f 3e
       0.1779062 -0.39933485 -0.19468224 0.13987687
000360 6f f5 d0 3c 65 93 40 3e 29 37 c3 3b 71 a5 a3 be
       0.025507657 0.18806227 0.0059575033 -0.3196216
000370 51 d5 ff bd 2f 41 ba be a8 f1 b2 bc 25 71 0f 3e
       -0.12491859 -0.36377856 -0.021843746 0.14008005
000380 cb 96 5b 3e 33 2f 43 3a 4d 09 69 3e a4 2c 4a be
       0.21444242 0.0007445693 0.22757454 -0.19743592
000390 b7 70 f7 3d 8d d5 a0 3d 41 6c fd bb 55 b0 4b 3e
       0.120820455 0.078532316 -0.007733852 0.19891484
0003a0 ab 63 8f be dc 5a 83 be fa b1 15 3e 71 52 00 3e
       -0.28005728 -0.25655258 0.14618674 0.12531449
0003b0 88 bf 18 be d1 39 87 be 5a 20 d9 3c e1 df 82 3d
       -0.14916813 -0.26411298 0.026504684 0.06390358
0003c0 a4 bc 38 bd 7a a7 68 3e a0 99 67 bd 9c 82 c9 bd
       -0.045101777 0.22720137 -0.056542993 -0.09839365
0003d0 97 81 17 3d a5 03 10 bc cf e8 cc bd 82 15 87 bb
       0.03698882 -0.008789931 -0.10005342 -0.004122437
0003e0 fe eb 34 be 85 af c3 3d bb 52 13 be 70 93 3b be
       -0.17668149 0.09554962 -0.14387028 -0.18317962
0003f0 09 33 54 be 9d 3f d4 bd 84 83 9b 3e 2c 07 c0 3e
       -0.20722593 -0.10363696 0.30373776 0.37505472

mlp_extractor.policy_net.2.bias f4 [64]
000000 d8 d1 7d bb de 0c 05 ba aa 78 bf ba 6f 50 86 3c
       -0.0038729813 -0.0005075465 -0.0014608104 0.016395776
000010 00 61 68 3c db b7 c3 3b 9a 26 3a bb 54 64 b0 bc
       0.014183283 0.005972845 -0.0028404356 -0.021532215
000020 93 b3 96 bc 43 f5 e5 3c a3 3f 4c 3c 73 11 93 bb
       -0.018396175 0.028071051 0.012466344 -0.004488164
000030 51 1a 0d bd 29 40 01 bd 21 79 ae 3c 80 38 4a 3c
       -0.034448925 -0.03155533 0.021297993 0.012342572
000040 68 00 aa bc 9d a3 dc 3c 63 30 56 bc 81 27 cc 3b
       -0.020752147 0.026933486 -0.01307306 0.006230295
000050 50 b7 23 bc 31 db fa 3c 2c 23 70 3c e2 6e ee bb
       -0.009992436 0.030622097 0.014656823 -0.007276402
000060 f6 47 8f bc b5 da 31 3b f5 65 1d 3d be ea 69 3c
       -0.017490368 0.0027138416 0.038427312 0.014277158
000070 5f 91 09 3d 94 29 dc 3c bc 65 f3 3b ba f0 be bc
       0.033585902 0.026875295 0.007427899 -0.023308147
000080 25 5f 0b 3c 99 9d 7e ba b0 e0 fd 3c 46 07 38 bb
       0.008506571 -0.0009712815 0.030990928 -0.0028080507
000090 0e 48 74 3b 2f a4 fa bb 86 f4 bf bc a1 26 93 bb
       0.0037274393 -0.0076489667 -0.023432028 -0.004490689
0000a0 8c 62 04 bc 86 cc 14 3c 16 d9 18 3c f4 01 64 3c
       -0.008080136 0.009081965 0.009329101 0.013916481
0000b0 f1 bf 31 bc 0a b9 57 bc 7f 6a c1 3c b0 89 27 38
       -0.010848985 -0.013166675 0.023610352 3.9944134e-05
0000c0 c5 bc df bb fd 2d 9c bc 76 8d 15 3c f4 f2 29 bc
       -0.006827923 -0.019064898 0.009127965 -0.010372866
0000d0 cf 80 02 bd 3f ad ad 3c 4a 5a 49 bc b2 bc 2f bc
       -0.031861123 0.021200774 -0.012289593 -0.010726141
0000e0 53 cd 80 bc 07 5d 8f 3c e2 40 a2 3c ae a0 e9 3a
       -0.015722906 0.017500414 0.01980633 0.0017824376
0000f0 4c 7a d0 bc 13 4d e6 3b 08 86 57 3c 11 e2 73 bc
       -0.02544894 0.007028231 0.013154514 -0.014885441

mlp_extractor.value_net.0.weight f4 [64, 102]
000000 20 59 a6 3c 80 08 ad 3d 11 c1 3f bd 73 29 42 be
       0.02030617 0.08448887 -0.04681498 -0.18961124
000010 8c c5 1d bd 7d 32 07 be d6 db 5b 3e ca 17 8c bb
       -0.038518474 -0.13202854 0.2147058 -0.004275297
000020 08 83 25 3e 2e 48 5b 3e 61 52 66 3e aa e8 5b be
       0.16163266 0.21414253 0.22492363 -0.21475473
000030 70 cc 1a 3e 2b 77 07 3d c7 79 36 be eb ab 17 be
       0.15117049 0.03307263 -0.17819892 -0.14811675
000040 b2 1d 17 3d 9e 77 13 be 99 08 3a bd a7 7a 07 be
       0.036893554 -0.14401099 -0.045418356 -0.13230382
000050 d9 64 fe 3d 89 d5 e0 3d 9a 99 58 be b2 9a ce 3c
       0.12421579 0.109782286 -0.21152344 0.025220249
000060 23 63 9b 3d 40 ca e4 bd 0c 94 f6 3d a8 43 97 bd
       0.07587268 -0.111713886 0.120399565 -0.07385951
000070 03 3a 5e 3e e1 dd bb bb f3 6f ce bd 08 f0 4c 3d
       0.21701817 -0.005733237 -0.10079946 0.0500336
000080 21 63 0e 3e ee 30 8a bd 2e 76 f3 3d 99 a7 fe 3a
       0.13905002 -0.06747614 0.11887775 0.001942861
000090 14 25 0a be e5 c0 c9 3a f3 6d 01 bd f7 6b c7 3d
       -0.13490707 0.001539257 -0.031598996 0.097373895
0000a0 80 28 8f be 02 06 e6 3d 3d 34 82 bb 23 eb d6 bd
       -0.27960587 0.11231615 -0.0039735124 -0.104940675
0000b0 f5 03 ea 3d e0 fe 3f bd a3 eb ea bd 2f 32 55 be
       0.11426536 -0.046873927 -0.114707254 -0.20819925
0000c0 a1 97 21 bd ff c9 ca bd 34 db dd be 0c 14 7f bd
       -0.039451245 -0.09901809 -0.433313 -0.062274978
0000d0 50 51 63 bc e1 1a 1d 3e 24 19 c4 bd 05 70 aa bc
       -0.013874367 0.15342285 -0.09575108 -0.020805368
0000e0 41 12 20 bd 74 10 7d bd f9 df 54 3d 98 6b d1 bd
       -0.03907991 -0.06178327 0.05197141 -0.102256
0000f0 20 01 0b be ab 11 72 be 60 70 0b 3e 18 e7 42 3e
       -0.13574648 -0.23639552 0.13617086 0.19033468
000100 f2 38 01 bd c4 53 e0 ba 47 77 c7 3d e2 4f 7c bd
       -0.031548448 -0.0017114808 0.09739547 -0.06159962
000110 fb e5 94 be 03 37 9f bd d4 80 79 3e e1 3a 66 3c
       -0.2908171 -0.077741645 0.2436555 0.014052124
000120 ce fa 57 3d 58 82 cc bc 92 77 fe bd 77 16 1e 3d
       0.05272942 -0.024964496 -0.1242515 0.038595643
000130 20 19 96 bd 7e 45 a3 3d 91 80 0a be 1e b9 03 3e
       -0.07329011 0.07972239 -0.13525607 0.12863585
000140 23 f7 3f 3e 68 8f d8 3d d5 7c 9f 3d ac ae 14 bd
       0.18746619 0.105742276 0.07787482 -0.036299393
000150 08 94 3d 3e 35 ee b2 bb b5 1b 3c 3e d5 01 ca 3d
       0.185135 -0.0054605254 0.18369944 0.09863631
000160 25 0b 83 3e 57 9a 5e be 6e bc a1 be d3 e0 98 3e
       0.2559444 -0.21738563 -0.31589073 0.29859027
000170 31 c0 25 3e ab 1f 9e bd a4 c8 2a 3e 6e c2 b7 3d
       0.16186596 -0.07720884 0.16678101 0.089726314
000180 63 0d d7 3d 71 52 a9 3c c6 c1 2b 3e 34 1b 74 3d
       0.105006 0.020669194 0.16773137 0.059596255
000190 c6 80 5d bd 03 11 2a be 70 fe 4b be a6 11 10 3d
       -0.054077886 -0.16608052 -0.19921279 0.03517308
0001a0 85 6e 69 3d 21 10 55 bc c4 f2 42 be a8 be 28 bd
       0.056990165 -0.013004334 -0.1903792 -0.04119745
0001b0 df 8f 86 3d 19 8a ae 3b ec ab c5 bd e2 bf 23 3e
       0.0657041 0.005326521 -0.09651932 0.15991166
0001c0 84 fb 87 3d e4 b3 b1 3d 7b 16 0b be 1d 4d a7 3d
       0.0663977 0.086768895 -0.13582794 0.08169005
0001d0 85 84 01 3e 18 38 83 3e ad 98 94 bd 80 86 c8 bd
       0.12648208 0.25628734 -0.07255683 -0.09791279
0001e0 ad 72 14 3d b2 a8 0d be 01 30 a9 3d 5a 69 16 3e
       0.036242176 -0.13833883 0.08261109 0.14688626
0001f0 7b be 06 3e 4d 07 40 be c1 b1 71 3d 65 1a 9b bc
       0.131586 -0.18752785 0.05900741 -0.018933484
000200 68 a0 41 bc b7 b7 b9 3d 2d 80 7a bc ac 84 e8 bd
       -0.011818029 0.09068244 -0.015289349 -0.1135343
000210 79 b6 00 bc 62 a7 70 3e a6 37 8a 3e ed 9c 6b be
       -0.007856005 0.23501351 0.2699558 -0.23009081
000220 33 73 2c bd 93 fe da 3d a4 4c bc 3d 61 22 a2 bd
       -0.04210205 0.106930874 0.091943055 -0.079167135
000230 bf b3 ab bd 95 3d e8 3d 0d ca 5e be fd 72 50 3d
       -0.08383893 0.11339871 -0.21756764 0.05089091
000240 d5 e8 0a 3e c5 1e b1 3b a0 2c 15 3d ec ee 0a be
       0.13565381 0.0054052793 0.03641951 -0.13567704
000250 4b a1 14 3e 19 1c be 3e 63 79 30 be d6 09 e6 bd
       0.14514653 0.37130812 -0.17233805 -0.11232345
000260 82 46 7c 3e fd f3 0d bd 27 4a 38 be a0 44 77 3e
       0.24636272 -0.034656513 -0.17997037 0.24147272
000270 55 9b fe 3b c3 af 6a 3e d2 80 8b bd 61 f7 86 bd
       0.007769982 0.2291861 -0.0681168 -0.065901525
000280 c6 b4 4f 3e 44 89 fe 3d 1b ea ca bd 06 86 d7 3d
       0.20283803 0.12428525 -0.09907933 0.1052361
000290 d6 4a 8f bd c1 24 b5 bd 09 40 14 be 22 5d 17 bd
       -0.06996696 -0.08844901 -0.14477552 -0.036954053
0002a0 07 02 0f be 76 e4 ae 3d df 74 27 bd ff bb d8 bd
       -0.13965617 0.08539669 -0.04088294 -0.105827324
0002b0 3f 28 51 3e 22 ef 42 be 66 c7 1f 3e fa 2a dc 3c
       0.20425509 -0.19036534 0.15603408 0.026875962
0002c0 9c 76 6e bd d9 58 62 bd 9d 9f 30 be e6 2a 11 be
       -0.058218583 -0.055260513 -0.17248388 -0.1417652
0002d0 d7 0b 90 3d f3 eb f7 bd 4d a5 4b 3e c0 68 15 be
       0.07033508 -0.121055506 0.19887276 -0.1459074
0002e0 a4 7b 41 3e 58 c4 99 3e fa e2 59 be 3b 1e 75 be
       0.18894821 0.3003261 -0.21277991 -0.23937313
0002f0 07 0d a8 bd 59 4e 92 3e 54 72 f5 3c 0f 15 9b bc
       -0.0820561 0.285754 0.029961742 -0.01893094
000300 34 93 21 bd 52 c9 5b bd 35 1f 8a bd f4 1c fe 3d
       -0.039447024 -0.05365879 -0.067442335 0.12407866
000310 e4 5d f4 bd 2c 8d e8 3d 3a 37 ae bd 1b c0 4e 3c
       -0.11931971 0.113550514 -0.085066274 0.012619044
000320 05 99 bc 3d 70 9a 8b bd d9 a4 a4 be 45 19 ab bd
       0.09208874 -0.06816566 -0.3215702 -0.08354429
000330 45 7a 8f be 34 ec 56 3e 08 03 e9 bd fa 08 54 be
       -0.28022972 0.20988542 -0.11377531 -0.2070655
000340 1e 39 1a 3d f2 df 52 3d d3 fa 55 be dc 82 44 3e
       0.037652127 0.051483102 -0.20896463 0.19190544
000350 79 c1 8d be 87 c8 c0 bb 27 23 8c 3c 89 63 29 3e
       -0.2768667 -0.0058832797 0.017106606 0.16541876
000360 6c da 33 3e b4 c4 35 3e a1 f5 7a be f1 08 35 be
       0.1756379 0.17750818 -0.24507762 -0.17679192
000370 c8 55 bf 3e 11 a0 86 3b 0a 7b e9 3d 88 23 92 bd
       0.37370133 0.004108437 0.11400421 -0.07135683
000380 ac 19 85 3d df 6a 4a 3e 00 55 aa bd c8 50 b9 3d
       0.06499037 0.1976733 -0.08316994 0.09048611
000390 ed 46 0a 3b c8 c5 e6 bc 32 33 ff bc cf de 82 be
       0.0021099404 -0.028170481 -0.031152342 -0.25560614
0003a0 4e a6 15 be 76 33 3e bc 25 41 64 be 8d 5e ad 3c
       -0.14614221 -0.011608949 -0.22290476 0.02116325
0003b0 73 6a b9 3d 8f e2 03 be cf 23 52 be bd 71 6c bd
       0.09053507 -0.12879394 -0.20521472 -0.057725657
0003c0 01 ac 1e 3d c3 50 09 3c fe b6 32 be a7 28 26 3d
       0.038738254 0.0083810715 -0.17452618 0.040566113
0003d0 7d 39 40 3e c5 77 83 be 66 a2 9b bd f8 bd 0b be
       0.1877193 -0.25677314 -0.075993344 -0.13646686
0003e0 fd 73 82 3e 0f 7e b8 bd 3f 29 7e bd b1 cf 20 3c
       0.25479117 -0.09008419 -0.062051054 0.0098151425
0003f0 95 92 1b 3e fb d6 d7 bc 5d 2d 01 3e b9 13 cf bc
       0.15192635 -0.026347628 0.12614961 -0.02527796

mlp_extractor.value_net.0.bias f4 [64]
000000 3f d9 85 33 a9 fb 70 bc 07 28 65 3b 28 fa 0d bc
       6.232812e-08 -0.014708438 0.0034966485 -0.008665599
000010 51 56 a9 bb 9f 07 8d bb 00 00 00 00 5c 89 7c b5
       -0.0051677604 -0.004303887 0.0 -9.40772e-07
000020 78 33 8b 3c 00 00 00 00 45 7f 9c bb 5c 77 4c 3c
       0.016992316 0.0 -0.004775914 0.012479629
000030 02 3b 87 b2 00 00 00 00 c6 e0 1a b9 41 4d f3 bb
       -1.5742902e-08 0.0 -0.00014770319 -0.007424981
000040 79 71 03 bb 28 56 fd bb b3 94 ae 3b a1 a4 14 b3
       -0.0020056649 -0.007731218 0.005327785 -3.4608664e-08
000050 71 8a d1 3a a7 7b c6 3b 1a fa 4b 36 10 20 ee bc
       0.0015986693 0.006057221 3.0394935e-06 -0.029068023
000060 1c 23 23 3c 21 b4 ab b5 8f 1c 70 bc bc f8 38 b5
       0.009957101 -1.2792917e-06 -0.014655246 -6.89073e-07
000070 00 00 00 00 7a fe da 33 00 00 00 00 1f 50 fa 3b
       0.0 1.0197705e-07 0.0 0.0076389457
000080 35 7c f9 b9 09 a6 a4 3b 7e 0f 10 bc 00 00 00 00
       -0.00047585522 0.0050246757 -0.008792756 0.0
000090 4f 74 8a bc 00 00 00 00 fd 93 70 b3 83 07 0f 3c
       -0.016901163 0.0 -5.601395e-08 0.008729818
0000a0 00 00 00 00 00 00 00 00 eb 8f 20 bc 00 00 00 00
       0.0 0.0 -0.009799938 0.0
0000b0 f6 be 88 3c 2b 50 77 30 00 00 00 00 00 00 00 00
       0.01669262 8.9972e-10 0.0 0.0
0000c0 4e 2f 4d 3a 2e 5f 39 bc c3 ff 77 bb e5 ec f4 bb
       0.00078271783 -0.0113141965 -0.0037841655 -0.007474529
0000d0 00 00 00 00 29 17 85 3c 00 00 00 00 00 00 00 00
       0.0 0.016246395 0.0 0.0
0000e0 bb 76 4e bc 00 00 00 00 61 b7 56 bb 54 16 9a bb
       -0.01260155 0.0 -0.003276311 -0.0047023688
0000f0 3a 42 7b 3c 00 00 00 00 53 f4 b5 34 83 30 32 39
       0.015335614 0.0 3.3891646e-07 0.00016993475

mlp_extractor.value_net.2.weight f4 [64, 64]
000000 12 35 e1 3d 59 1b a2 be 9d a2 03 be d5 04 f9 3d
       0.109964505 -0.3166149 -0.12855001 0.12159125
000010 ed 3c 55 3e 49 07 0a 3e 3c 8c 1e bb b1 24 8e 3e
       0.20824023 0.13479342 -0.0024192473 0.27762368
000020 2e b7 1b be 00 65 bf bd 7f cc 90 3d 86 24 18 be
       -0.15206596 -0.09345436 0.070702545 -0.14857683
000030 84 47 2b 3e f8 e7 8f bc 69 c9 d6 3b cf 90 44 bd
       0.167265 -0.017566666 0.0065547717 -0.047989663
000040 26 a8 95 be 34 43 a7 3d f6 09 06 3e 4f 67 af 3c
       -0.2922985 0.08167115 0.13089737 0.021411566
000050 ac 93 4f 3c 8a 68 1c bf 95 d3 58 3d 0d df 5d 3e
       0.012669485 -0.61097014 0.052936155 0.21667118
000060 5e 29 63 3c cc 1a dc bc 55 56 03 3e 04 ce 63 3d
       0.013864843 -0.026868246 0.12825902 0.055616394
000070 6d bf ff 3b 45 f4 65 ba 3b 3a 43 bd 3b cb a4 3e
       0.007804802 -0.0008772056 -0.047662955 0.32186303
000080 6f 5f 08 be 9a 45 06 bd db 7b 77 bd 26 7e 9a bd
       -0.13317655 -0.03278122 -0.060420852 -0.07543592
000090 44 0a 8d 3c 6c 0c eb bc 57 64 ab 3d da 4c 00 3d
       0.01721681 -0.028692447 0.08368748 0.03132329
0000a0 da 79 bc 3e a3 23 df 3d 78 7e 9d 3e fb 8f 78 3d
       0.36811715 0.10895469 0.3076055 0.060684185
0000b0 4a 9e 8b 3e 13 6c aa be 76 c4 45 3e 10 81 b8 3d
       0.27269202 -0.3328558 0.19313225 0.09008992
0000c0 cf 14 da 3d 51 02 e8 3d 39 1d 2d 3e 61 12 94 3c
       0.106485 0.11328567 0.16905679 0.01807517
0000d0 76 69 b5 3c 30 5e 97 3e 9a 6f af 3d d4 0c 67 be
       0.022145014 0.29564047 0.08566208 -0.22563487
0000e0 95 ad 92 be e4 7a 3d 3d 9f 1b dc be e1 9d 51 3d
       -0.28648058 0.046259776 -0.42989823 0.051175956
0000f0 44 e3 83 3c cf 20 83 3e 90 29 31 3d e1 93 a2 3d
       0.01609958 0.25610968 0.043252528 0.07938362
000100 5a 15 1e 3d 7e 7a 44 be b5 5f 2c 3e b8 c3 65 3d
       0.03859458 -0.19187352 0.16833384 0.056094855
000110 46 37 9f 3e 38 1a 17 bd 8e d5 a2 3e a3 07 4f 3e
       0.31096858 -0.03689024 0.31803554 0.20217757
000120 24 4c e6 3d ea 57 3f be 76 c1 82 be 6c 34 fa 3d
       0.112449914 -0.1868588 -0.25538224 0.1221703
000130 e5 8d 5a bd 56 00 7c 3e 3e e2 b4 3e eb bf 8d 3e
       -0.053357977 0.24609503 0.3532886 0.27685484
000140 a2 8b 8b bd 8e bc dd bd dd 55 12 bd 7a e4 c5 3d
       -0.06813742 -0.108269796 -0.035726417 0.09662719
000150 83 5c eb bc 67 30 a0 3d 1a 05 46 3e 91 df 81 3e
       -0.028730636 0.07821732 0.19337884 0.2536588
000160 c0 37 c7 3d 2a 71 6a bb fc a4 66 3e fb 78 30 be
       0.0972743 -0.0035773017 0.22523874 -0.1723365
000170 ac 16 20 3e 82 40 17 be dd 78 aa bd 98 e1 d3 bd
       0.15633649 -0.14770702 -0.08323834 -0.10345763
000180 87 89 28 be 84 f6 8d bd 5d 2a 73 3c b6 60 a7 3d
       -0.16458713 -0.06931785 0.014841643 0.08172743
000190 f8 b5 4e bd 4e d9 0f 3e b8 e5 03 3d 85 1f 5f 3e
       -0.050466508 0.14047739 0.0322015 0.21789367
0001a0 94 a2 2f 3e 9d d0 eb 3d 2c 86 1c be 48 33 75 be
       0.17151862 0.11514399 -0.15285558 -0.23945343
0001b0 9e 29 97 3e aa 7a a6 be 0a ec 90 be 22 32 24 3d
       0.2952394 -0.3251546 -0.28305084 0.040086873
0001c0 90 24 36 be 1b 10 3e 3d b0 3d e1 bd 02 a4 dd bd
       -0.17787385 0.046402078 -0.10998094 -0.10822298
0001d0 6c f3 1b 3e 51 9d c4 bc 3e 07 e7 bd cf 46 31 bd
       0.15229577 -0.024000796 -0.11280678 -0.04328042
0001e0 89 12 87 3e c9 f8 a3 be 0e b1 92 3c a4 ae 2e be
       0.2638133 -0.32025746 0.017906692 -0.17058808
0001f0 77 4b af bd ac f4 c7 be b5 a8 17 3d 05 a3 07 3e
       -0.08559316 -0.39053857 0.037026126 0.13245781
000200 39 e4 15 bd 0f 38 8a 3e 88 25 1e 3d 46 68 33 be
       -0.036594603 0.26995894 0.03861001 -0.17520246
000210 0b 95 39 3e 2a 7a e3 bd 8d d4 28 be bc fc 95 be
       0.18123262 -0.11107285 -0.16487332 -0.29294384
000220 65 52 14 bd 5e 98 7a be a5 cb 08 3e 3e 33 4e 3d
       -0.03621139 -0.24472186 0.13358934 0.050341837
000230 f1 3a a5 3d 01 5c 26 bd 7e c8 45 be d7 3b 3c 3e
       0.08067883 -0.040615086 -0.19314763 0.18382202
000240 ed 19 8f 3d 84 76 91 3c d5 d8 92 3d 25 f2 bc 3d
       0.06987367 0.017756708 0.07170264 0.09225873
000250 bb ee 04 3b e9 74 a4 be 33 9c cb bd bc 52 2a be
       0.0020283896 -0.32120445 -0.09941902 -0.16633123
000260 98 b3 75 3e 80 e0 bd 3d b7 de e8 3b d9 b6 f0 3d
       0.23994291 0.092713356 0.007106628 0.117536254
000270 9f 1e f3 3e 25 14 4a 3d 6b 77 77 3b 12 1f 9f be
       0.474843 0.049335618 0.0037760388 -0.31078392
000280 b6 17 19 3c d8 00 e3 3d df 98 25 be e6 50 ba 3e
       0.009344032 0.11084145 -0.16171597 0.36389846
000290 20 6d 74 3c 4d 06 a2 3d d8 f6 b8 3d a5 1b e0 bc
       0.014918596 0.07911358 0.09031457 -0.027356932
0002a0 0d fd d9 3d e4 9f 98 bd a5 c6 fe bc dd 3a cb be
       0.10643969 -0.07452372 -0.03110058 -0.39693347
0002b0 ca 21 79 bd e7 a9 e2 bd 7d a5 a2 be 1a 3a fd 3d
       -0.06082324 -0.110675626 -0.31766883 0.123645976
0002c0 bb 13 74 bc 88 23 b8 bd c4 d2 83 bd 64 7d 33 be
       -0.014897282 -0.08991152 -0.06436685 -0.17528301
0002d0 d6 9c 13 be 09 83 07 be fd 9e aa 3e e1 de 8a 3e
       -0.14415297 -0.1323358 0.33324423 0.27123168
0002e0 d0 d4 a4 be 8d 18 1b 3e 6f 27 d9 bc 8c 90 db 3d
       -0.32193613 0.15146084 -0.026508061 0.107209295
0002f0 f2 19 a8 be 41 0d 03 be 9c 02 de bd d1 7b 7e 3e
       -0.32832295 -0.12798025 -0.108403414 0.2485192
000300 84 53 3b 3d 6a 40 44 bd b9 5e 15 3e 9b 91 8e 3d
       0.045733944 -0.047912993 0.14586915 0.06961366
000310 a5 8a 06 be 0d ce e9 3d 63 69 48 be 7d fe 87 3d
       -0.13138826 0.11416254 -0.19571452 0.06640337
000320 41 aa 8b b7 2d 1d 56 3c c5 6f 19 3e 5a 1c 9c 3e
       -1.6649372e-05 0.0130684795 0.14984043 0.3049038
000330 8e 9d 0c 3d 66 c1 ed 3c 00 d8 9d bd b1 d8 ab 3d
       0.034329943 0.029022884 -0.07707214 0.0839094
000340 c9 95 54 be 7e 9b 85 be 57 ab ad bd e3 25 24 be
       -0.20760264 -0.26095194 -0.08479946 -0.16030078
000350 10 9f c5 3d 09 55 37 be 25 17 3a 3e 2d 8c 1e bd
       0.096494794 -0.17903532 0.18172891 -0.0387079
000360 c5 97 87 bd 06 8a ad 3e 31 cf 37 be 46 3d 9d 3e
       -0.066207446 0.33894366 -0.17950131 0.3071081
000370 36 ac da bd 05 cb 18 3e b9 5c 6f be c7 ff d6 bd
       -0.10677378 0.14921196 -0.23375215 -0.104980044
000380 c1 ec 94 bd 70 e2 02 be a5 7c 3d be 4b 53 8f 3d
       -0.0727172 -0.12781692 -0.1850458 0.06998309
000390 5f 20 c0 3c 8a 7d 93 3d f6 6d a1 be ce 1b e7 bd
       0.023452936 0.07201679 -0.31529206 -0.112846
0003a0 ce 9a bb be ef e7 d3 ba 26 62 6d 3e 1f 14 8d be
       -0.36641544 -0.0016167144 0.23181972 -0.27554414
0003b0 98 9a e5 3e 63 be 3b 3e 1d 2a c1 3c 33 fe 14 3e
       0.44844508 0.18334346 0.023579651 0.14550094
0003c0 37 d6 aa 3d f1 4a 9e 3d a2 b5 c0 3d 3a ac 62 3d
       0.083416395 0.07729138 0.09409644 0.05534003
0003d0 07 d6 79 be 6d c4 63 be f7 4d de bb b3 e4 a9 be
       -0.24398051 -0.22242899 -0.0067841965 -0.33182296
0003e0 48 7a f7 3d b2 cd ea bb f9 92 8b 3e 5c 09 8b 3d
       0.1208387 -0.007165634 0.2726057 0.067888945
0003f0 75 a3 59 be 64 54 07 bd 1d 2f 55 3e c7 77 77 3e
       -0.2125376 -0.033039466 0.20818754 0.24166785

mlp_extractor.value_net.2.bias f4 [64]
000000 ab b2 24 bd 84 4b 34 3d 42 14 a6 3c af f7 74 3d
       -0.040209454 0.04401733 0.020273332 0.059806522
000010 e5 ce 76 bd 64 3f 83 3d f2 41 11 bd 0b 54 18 bd
       -0.060255904 0.06408575 -0.03546328 -0.037189525
000020 64 78 08 3d 2d 72 d7 3c a7 5c 50 3d 41 cf 47 3d
       0.03331794 0.02629956 0.05086961 0.048781637
000030 9f f8 37 3d 1c 80 7e bd 5e 20 d7 3c 03 d9 14 bd
       0.044914838 -0.062133893 0.026260551 -0.03633977
000040 8a ed 4e 3d a2 7b 16 3d de 6e 81 3d d2 81 52 3d
       0.050519504 0.036739 0.06319974 0.051393338
000050 86 bc 4b 3d da fd b8 bc 53 28 ad 3c 55 1e 1b bd
       0.049740337 -0.022581983 0.021137392 -0.037870724
000060 ad 42 67 bd cd 37 99 bc 58 45 17 3d 09 ce 4a 3d
       -0.05646007 -0.018703366 0.036931366 0.049512897
000070 ba 97 21 3d 2e 25 db bc 48 91 80 3d 23 5e 4f bd
       0.03945134 -0.026751127 0.0627771 -0.050626885
000080 5a 3b a3 3d d6 5a c8 3c 59 f9 7a bc 3e 38 22 bd
       0.07970305 0.024457376 -0.015318238 -0.039604418
000090 69 41 3b bd 10 c5 32 3d a1 70 9d 3d 96 3f 47 3c
       -0.045716677 0.043644965 0.07687498 0.012161156
0000a0 43 2e 2f 3d 30 43 c7 bc 9d df 43 3d 6f 26 72 bc
       0.042768728 -0.02432403 0.047820676 -0.014779671
0000b0 8c 36 44 3d 32 79 19 3c 98 5d 2d bd c6 7c 8b bc
       0.047903582 0.009367274 -0.042325586 -0.01702727
0000c0 e7 91 96 bd b5 48 f0 bc 42 e4 ec bc 0f e6 29 bd
       -0.073520474 -0.029331544 -0.028917436 -0.041479167
0000d0 2e d5 50 3d 4b 9d f1 bc e2 d1 1a bd 1b 69 3d bd
       0.050984554 -0.029493948 -0.037797816 -0.046242815
0000e0 e1 ae 58 bd cb ca 98 3a f8 5f 9d 3c c3 eb eb bc
       -0.052901153 0.0011657117 0.0192108 -0.028798943
0000f0 9a 79 21 3d 9f 18 ae 3c 28 2c b5 bc 3d 3e 16 3d
       0.03942261 0.021251975 -0.022115782 0.03668045

action_net.weight f4 [18, 64]
000000 c8 5d 9c bb 70 be a8 3b 45 a4 81 bc b3 93 af 3c
       -0.004771922 0.005149655 -0.0158254 0.021432733
000010 7b b1 c9 3c 3b 7c c2 3c eb ba a3 bc 59 b2 f3 bb
       0.024620762 0.023740878 -0.01998659 -0.007437032
000020 5c 69 ba bc de 6a a6 3c d4 2a bd 3c 7a 76 5c bc
       -0.022755317 0.02031463 0.023091711 -0.013455981
000030 62 c8 a8 bc 5f f4 e7 bc 79 ee ee ba 89 15 5a 3b
       -0.020603362 -0.028314767 -0.0018229029 0.0033276996
000040 86 0d 77 bc 7e 7d f9 3c 7e 12 c1 bc 70 91 7f 3b
       -0.015078908 0.030455347 -0.023568388 0.00389966
000050 3e 99 ae bb b2 f8 f7 3c 75 85 df 3c 93 a4 f6 bb
       -0.0053283265 0.030269954 0.027285317 -0.007526943
000060 65 dd 58 bb f7 88 bf bb 22 b0 c1 3c 2f c1 3d 3c
       -0.0033090946 -0.005845185 0.023643557 0.011581703
000070 92 01 c0 3c ad 48 a6 3c cf 82 9e ba 36 8a 94 bc
       0.023438249 0.020298326 -0.0012093427 -0.01813231
000080 68 ac af 3b 19 a5 6a bc af 4f fc 3c 42 57 86 3c
       0.0053611286 -0.014321589 0.030799715 0.01639903
000090 a1 30 82 3c 8a 1c 14 bc 88 ed 4d bc fe a2 5a bb
       0.015892329 -0.009040007 -0.012568839 -0.003336131
0000a0 b1 98 46 bc 1a 55 13 ba 16 f3 be 3c 87 c7 bc 3c
       -0.012121365 -0.0005620286 0.023309272 0.02304436
0000b0 28 0c 5c bc 5e ea ad bc 20 80 0b 3d 24 73 08 ba
       -0.013430633 -0.021229919 0.034057736 -0.00052051456
0000c0 cf 43 3a 3c b5 ba 13 bc 14 b9 9f 3c f9 4f 7f bc
       0.011368706 -0.009016682 0.019497432 -0.015583032
0000d0 12 6e 67 bc 8d 1f 40 3b 6b 52 58 bc 83 b6 45 3b
       -0.014125364 0.002931568 -0.013203244 0.00301686
0000e0 a7 b5 80 bc 91 be 04 3c b7 a2 91 3c 3b 62 47 bb
       -0.015711619 0.008102075 0.017777784 -0.003042354
0000f0 39 b9 de bc 96 5c b5 3b c5 c0 80 3c 48 7b 56 bb
       -0.02718793 0.0055347187 0.01571692 -0.003272729
000100 c3 e3 ab bc b2 5d c3 bc aa 6c e0 3b 8b 7d 3e 3c
       -0.020982629 -0.023848388 0.0068488913 0.011626611
000110 fc 80 85 3c 1a 40 75 3c 78 48 7d bc 5c b2 46 3c
       0.016296856 0.014968896 -0.015459172 0.012127485
000120 42 04 65 bc 47 f2 00 3c 16 48 8f 3b ae 90 4e 3c
       -0.013978066 0.007870263 0.004372607 0.0126077365
000130 14 67 3d bc b4 06 77 bc 9a cd 92 bc 66 b1 87 bc
       -0.01156022 -0.015077282 -0.017920304 -0.016564082
000140 a0 dc 40 ba d4 35 6d 3c 77 08 15 bc 99 c2 d0 bc
       -0.00073570944 0.014478166 -0.009096256 -0.025483416
000150 c9 a0 9c 3c 23 bd 69 3c 28 ee 7e 3c 14 0b d9 bc
       0.019119637 0.014266285 0.015559711 -0.02649454
000160 5e 73 ac 3c 6f c1 7d bc 07 66 5c 3c 13 ef 1e 3c
       0.021051105 -0.015488013 0.01345206 0.009700554
000170 f6 c2 ff 3b 81 96 69 3c 01 00 b4 bc 89 ff 52 bc
       0.0078052236 0.014257074 -0.021972658 -0.012878307
000180 b3 bc 8e 3c 03 8b b2 bc fd f2 4f 3c 5d f5 11 bc
       0.017423963 -0.021794802 0.01269221 -0.008908597
000190 8b 5c 13 bc 5b 28 8e bc f0 ae 30 bc 9a 29 53 bb
       -0.008994232 -0.017353227 -0.010783896 -0.0032220841
0001a0 1a f8 cd 3a 38 69 96 bc b0 5a 88 3c 4a ce 6c 3c
       0.0015714199 -0.01836072 0.016644806 0.01445348
0001b0 ea 8a 2c bc d6 4b 46 bc 91 89 38 3c 3e 8a a9 bc
       -0.010531167 -0.012103042 0.011263267 -0.020695802
0001c0 7b ff 6c 3c eb e5 f9 bb 6b cb 07 3c f4 4d 60 3b
       0.014465208 -0.0076262853 0.008288245 0.0034226151
0001d0 37 82 12 3a 9a 4e aa bc 01 07 bd 3b a8 8b 30 3c
       0.00055888615 -0.020789433 0.005768657 0.010775484
0001e0 20 40 57 bc 9c e2 3f 3b c8 32 2a 3c 4b af 3c 3c
       -0.013137847 0.0029279357 0.010388084 0.0115164025
0001f0 fd d5 5b bc 3d e9 28 3c e1 01 a7 3c 32 b1 a6 3c
       -0.013417718 0.010309515 0.020386638 0.020348165
000200 d2 c4 7c 3a 0a a2 d3 3c 91 71 27 bd c6 a7 df 3c
       0.00096423656 0.025834102 -0.04087979 0.02730168
000210 dc c2 f8 3c 28 d1 d7 3c 3b e9 ef bc c8 aa 20 bc
       0.030366354 0.02634485 -0.029286018 -0.009806342
000220 84 17 d5 bc 15 0e 8c 3c d0 0e 15 3d 48 43 d2 bc
       -0.02601219 0.017096559 0.03639108 -0.025666848
000230 9a d3 dc bc 29 20 eb bc bd ae 29 3c 31 41 7f 3c
       -0.026956368 -0.028701859 0.010356602 0.015579508
000240 00 38 a8 bc 6b 76 00 3d fb e2 ee bc 29 dd 02 3d
       -0.020534515 0.031362932 -0.029160967 0.031949196
000250 7b 48 24 bc 7c 2e f3 3c 12 38 f2 3c c6 a5 0d bc
       -0.010027046 0.029685251 0.029567752 -0.0086454805
000260 ce 96 0f bb 3f 33 0a bb 59 dd dd 3c be 2a 09 3d
       -0.0021909955 -0.0021087674 0.027083086 0.033488028
000270 b2 23 d6 3c 71 2b db 3c 39 16 db 3c 22 17 bf bc
       0.026140068 0.026754113 0.026743995 -0.02332646
000280 7f 34 58 bc 93 e2 b6 bb e0 3e ef 3c d1 ad 0f 3d
       -0.01319611 -0.005581209 0.029204786 0.035077874
000290 f7 c9 01 3d 4d 1e 86 bc 72 50 61 bc 19 24 e7 bc
       0.03168675 -0.01637187 -0.01375209 -0.028215455
0002a0 9f 15 9a bc de 2c 83 3c a0 96 01 3d 4b 4b d9 3c
       -0.018809138 0.016012605 0.031637788 0.02652516
0002b0 8e e9 df bc 43 44 e1 bc 16 d7 1d 3d af 3d bb 3c
       -0.027333047 -0.02749837 0.0385352 0.022856561
0002c0 f0 41 bc 3c b3 66 be bc 49 0f cd 3c 98 2e 03 bd
       0.02298066 -0.02324233 0.025031703 -0.032026857
0002d0 e1 45 98 bc 52 05 7e 3c fd 33 20 bd 25 1e 05 3c
       -0.018588008 0.015504198 -0.03911208 0.008124863
0002e0 3f 14 e9 bc 04 fa 92 3c da e8 c9 3c 87 05 50 bc
       -0.028452037 0.017941482 0.024647165 -0.01269663
0002f0 fb e3 e1 bc 2d 44 9c 3c fd f6 01 3c 04 8b 1d bc
       -0.02757453 0.019075477 0.007932422 -0.009615663
000300 dc 8f 3a 3c af ee b4 bb 72 8b 02 3d 04 56 dc 39
       0.011386838 -0.0055216174 0.031871267 0.00042025757
000310 6e 1b 28 3a f3 17 9e ba b6 cd 21 bb 89 8a 85 bc
       0.0006412779 -0.0012061581 -0.0024689264 -0.01630141
000320 a2 c0 78 39 07 7e ae 3b 8d e6 0c 3c cd 5b c3 3a
       0.00023722884 0.005325082 0.008599889 0.0014904678
000330 90 77 20 bb bb f9 29 3b 85 1e 31 3c 92 f2 17 3c
       -0.0024485327 0.0025936204 0.010810499 0.009274142
000340 fc db 69 bc 3c d4 9d 3a 8d a1 58 bb 08 bd 83 3c
       -0.01427364 0.00120414 -0.0033055276 0.016081348
000350 8a a0 27 bc 0c a5 e9 b9 0a bf b9 3a c7 b7 4b bc
       -0.010231147 -0.00044564193 0.0014171314 -0.012433953
000360 a8 93 22 bc 7f 2a e4 3a 81 1b ef 3b 8c 39 86 3c
       -0.009922899 0.0017407684 0.00729698 0.016384862
000370 50 48 0a 3b be 36 db 39 e9 e9 11 3c 52 12 2a 3b
       0.002110023 0.0004181172 0.008905866 0.002595086
000380 59 4a e7 bc 41 0b 9f bb 57 b3 c5 3a e2 dc 12 3c
       -0.028233694 -0.0048536365 0.0015083355 0.008963795
000390 2b db e0 bb 5f 5e 71 bc f2 fb fb 3a 17 a5 63 bc
       -0.0068620644 -0.0147319725 0.0019224866 -0.013894341
0003a0 64 89 95 b9 04 a0 12 3c 21 69 9d 3a 9c 96 28 38
       -0.0002852186 0.0089492835 0.001200948 4.0194587e-05
0003b0 a0 45 c4 bb 1f 8d c8 3a b3 03 2d 3c 4e e1 54 3c
       -0.0059897453 0.0015300846 0.010559964 0.01299317
0003c0 d4 d4 d3 bc d2 ad 30 3b fe 85 e9 ba 26 7d ae 3b
       -0.02585832 0.0026959074 -0.0017816422 0.0053249775
0003d0 9f a7 cb 3b 8a 09 23 3c dc a1 74 ba 1b a1 f8 bb
       0.0062150504 0.009951005 -0.000933198 -0.0075875646
0003e0 16 f9 2e ba d3 46 09 3b d2 fd 56 bb 30 12 c5 bb
       -0.000667469 0.0020946756 -0.0032805097 -0.006014131
0003f0 a4 47 13 3b 92 66 c1 bc e9 4a 1b 3c 44 7f 23 bc
       0.002247312 -0.02360848 0.009478309 -0.009979073

action_net.bias f4 [18]
000000 23 de b9 3c 5e 27 67 3c 7b 9e d9 3c d9 ef f8 b9
       0.02268893 0.014108507 0.026564827 -0.00047480947
000010 a7 64 72 bc 27 60 9c 3b 24 05 43 3b 76 0e 16 bd
       -0.014794505 0.0047722044 0.0029757703 -0.036634885
000020 5b 4b 43 bc 5e e6 0e bc 86 1e d2 b9 00 59 c4 bc
       -0.011919822 -0.008721916 -0.00040077063 -0.02396822
000030 69 a0 78 bc 24 3a 95 3c f0 8e bc 3c 48 ff 3c 3c
       -0.0151749635 0.0182162 0.023017377 0.011535473
000040 70 77 5c bc a7 d9 4f bc
       -0.0134562105 -0.01268617

value_net.weight f4 [1, 64]
000000 3b b1 e9 3d 9c 09 31 3d 67 26 ac bd 88 4d b6 bd
       0.11410757 0.043222055 -0.08405762 -0.08901507
000010 fc e0 fc 3d 36 97 0c be 55 c8 1d 3e c3 83 55 3e
       0.123476 -0.13729557 0.15408452 0.20851044
000020 d8 aa a8 bd a1 95 0b be 93 79 29 be b1 6a 87 be
       -0.08235711 -0.13631298 -0.16550283 -0.26448587
000030 1e 8a 0d be af 20 52 3e 84 0b 94 be d6 66 15 3e
       -0.13822219 0.2052028 -0.28915036 0.1459001
000040 13 5f 08 be 2e 0f 47 be 76 01 ff bd 82 87 49 be
       -0.13317518 -0.19439384 -0.124514505 -0.19680598
000050 18 53 0b be 7a e7 c1 3d 95 95 3a be 4e 77 ae 3e
       -0.13605917 0.09467979 -0.18221124 0.34075397
000060 a7 4f 21 3d 9b 58 4f 3e 1c 8c b1 bd 63 c9 72 be
       0.039382603 0.20248644 -0.08669302 -0.23709635
000070 46 40 31 be 2c 55 02 3e ff 14 c2 bd 7c a3 b1 3d
       -0.17309675 0.12727803 -0.09476661 0.0867376
000080 15 f4 61 be 77 23 10 be ec 36 a5 3d d2 56 f6 3d
       -0.22065766 -0.14076029 0.08067116 0.120282784
000090 f6 31 c9 3d 53 f7 13 bd ab f1 bf bd e0 5a e4 bd
       0.098239824 -0.03612454 -0.093722664 -0.111501455
0000a0 90 e9 23 be aa 2f 3b 3e bd 7e 99 be db d5 26 3e
       -0.16007066 0.18279901 -0.29979506 0.16292517
0000b0 b1 1d ad bd 21 98 60 be 91 0d aa 3d 87 86 e1 3d
       -0.08452929 -0.21933033 0.08303369 0.11011987
0000c0 35 35 5e 3e b3 b1 42 3e 79 13 e3 3d 9c dd cb 3d
       0.21699984 0.190131 0.110876985 0.09954378
0000d0 3f fd 6d be 99 7c 98 3d 7e 51 c2 3e 96 47 e5 3d
       -0.23241137 0.0744564 0.379528 0.111952946
0000e0 9a bb 9a 3d f0 b6 17 3d 0e 85 dd bd d9 8a 75 3e
       0.075553134 0.037039697 -0.10816394 0.23978747
0000f0 16 b3 96 be 8a 3f 6f be 33 40 ba 3d fd 9c 48 be
       -0.29433507 -0.23364082 0.09094276 -0.19591136
