PowerSyn/RL/sources/model_basic/policy.pth (torch, 56449 bytes, 11 tensors)

mlp_extractor.policy_net.0.weight f4 [64, 27]
-0.13753168 0.0019328659 -0.033522125 -0.03877365 -0.09558368 0.4312582 -0.07317668 -0.025619267
-0.32752016 0.12549442 -0.041882955 -0.0046262974 0.15906307 -0.19588111 0.07547574 0.0601111
-0.027866982 0.2582446 0.30350736 0.21367152 -0.0371287 -0.2302603 -0.067977324 -0.16777177
-0.095912665 -0.101654895 0.15770908 0.10960999 0.17881839 0.2507654 -0.14580978 -0.09917134
0.1403555 0.28959212 -0.35918713 -0.056561753 -0.12786646 -0.10591837 0.38442448 0.15592793
-0.32358962 0.39912632 -0.08365921 -0.031077592 -0.118809365 0.0046895375 -0.025065007 -0.05860681
0.14538637 0.05139136 -0.11965879 0.12374587 0.15160121 -0.13028276 0.429947 -0.04547431
0.06413241 -0.0974966 -0.030651033 0.18462306 0.09262812 0.037131656 0.03845745 0.16486458
0.05859383 -0.10876578 -0.078476794 -0.17546555 -0.0037817156 0.12499557 0.38203594 -0.029714534
-0.18727542 0.34830132 -0.06741901 0.024096703 -0.15927748 -0.344372 0.22119097 0.14367786
0.034941275 -0.16035905 0.09867706 0.15744306 -0.015364218 -0.11624601 0.20968755 0.13426107
0.27673674 -0.053610623 -0.05331937 0.07704931 -0.13677087 -0.18685354 0.017966986 -0.12176434
0.24097398 0.34072563 -0.028804712 0.38726413 -0.032123893 -0.0713786 -0.030046888 -0.0888921
-0.00045717027 -0.0091643995 -0.036273405 0.07511299 0.038983278 0.40491372 -0.019206362 -0.042537853
0.15863496 0.12745942 0.029248526 0.036496606 0.14291507 -0.0032033345 -0.24513125 -0.05483704
-0.045356866 -0.112655014 -0.035047203 0.018233478 -0.0059106746 -0.24211097 -0.19032021 -0.12146152
-0.3863419 -0.29488266 -0.260512 -0.19088796 0.10527644 -0.088839665 0.22545826 -0.28422898
0.037538383 -0.20546369 0.16003278 -0.106466584 -0.14057732 0.12914759 -0.29529282 -0.09212491
-0.2795247 0.310118 -0.29965088 0.10282712 -0.03519071 -0.1395639 0.16911812 -0.14301395
-0.1002147 0.055324156 -0.16395229 -0.02332156 -0.016062621 -0.13354632 -0.059314843 -0.0336997
0.02667485 -0.17903155 -0.46709505 -0.23350728 -0.22652175 -0.10223904 -0.34966695 0.009340798
-0.026585396 -0.34011722 0.065260075 -0.29118422 -0.04577259 -0.0019980788 0.02431667 0.08510395
-0.048296187 -0.024435185 0.21628873 0.5478928 -0.15332372 0.49216488 -0.13373014 0.021688513
0.017697766 -0.11359217 0.018220134 0.12491113 0.17752303 0.07779413 0.13589586 -0.0961601
0.10607899 -0.11915562 0.14493963 0.3506472 -0.09533247 -0.12972417 -0.06204117 0.04507375
0.059811287 -0.43980294 0.14808214 -0.170142 -0.024381252 -0.1600342 -0.08508204 0.20864557
-0.011413301 -0.16643657 0.2506845 -0.12632616 0.08767417 -0.29813394 0.16655181 0.02768581
-0.05786119 0.03333962 0.0059848684 0.04476435 -0.32274184 -0.08916876 -0.18045281 0.284975
0.09562281 -0.43789333 -0.17730741 -0.0761698 -0.046524663 -0.011291605 0.3546735 -0.19644608
0.07024124 -0.13377677 0.2058558 0.08588573 0.01675431 0.12401837 -0.061476287 -0.054233577
0.07474502 0.19027133 0.08966508 -0.064962864 0.10577346 -0.25505197 -0.06630331 -0.091419674
0.12805964 -0.242719 0.15668862 0.010316531 0.18695605 0.16283014 0.23477644 0.24024998
00000000: 1bd5 0cbe 3858 fd3a 7f4e 09bd 1ed1 1ebd
00000010: 60c1 c3bd e0cd dc3e a8dd 95bd 7fdf d1bc
00000020: b9b0 a7be 9c81 003e 768d 2bbd 3298 97bb
00000030: 6ee1 223e 0f95 48be 0693 9a3d 0f37 763d
00000040: 4c49 e4bc a338 843e 5165 9b3e b5cc 5a3e
00000050: 4414 18bd 5bc9 6bbe b237 8bbd 5dcc 2bbe
00000060: dc6d c4bd 7130 d0bd 7d7e 213e 347b e03d
00000070: 2b1c 373e 5364 803e 294f 15be 581a cbbd
00000080: 5ab9 0f3e 6b45 943e 60e7 b7be 4cad 67bd
00000090: 6def 02be bbeb d8bd 49d3 c43e 92ab 1f3e
000000a0: 8aad a5be 495a cc3e 8555 abbd 6f96 febc
000000b0: 5352 f3bd b1aa 993b 2155 cdbc b20d 70bd
000000c0: 2ae0 143e bf7f 523d ab0f f5bd 7a6e fd3d
000000d0: 593d 1b3e d868 05be 0322 dc3e 4543 3abd
000000e0: da57 833d 4cac c7bd e017 fbbc d40d 3d3e
000000f0: d0b3 bd3d 5d17 183d 8f85 1d3d 43d2 283e
00000100: 1500 703d 98c0 debd 71b8 a0bd 3ead 33be
00000110: a9d6 77bb adfd ff3d 379a c33e e56b f3bc
00000120: 21c5 3fbe 8d54 b23e fa12 8abd 7366 c53c
00000130: a319 23be 8751 b0be e37f 623e 4a20 133e
00000140: 951e 0f3d 2a35 24be 3317 ca3d c138 213e
00000150: 33ba 7bbc 6312 eebd 55b8 563e bc7b 093e
00000160: 70b0 8d3e d096 5bbd 6965 5abd 07cc 9d3d
00000170: aa0d 0cbe 8956 3fbe 802f 933c 955f f9bd
00000180: e2c1 763e 9773 ae3e dcf7 ebbc 7c47 c63e
00000190: 5894 03bd f22e 92bd e424 f6bc 100d b6bd
000001a0: 5bb0 efb9 4726 16bc 6c93 14bd d7d4 993d
000001b0: eeac 1f3d da50 cf3e a956 9dbc 2c3c 2ebd
000001c0: 3471 223e b984 023e 9b9a ef3c 777d 153d
000001d0: 5458 123e 09ef 51bb b003 7bbe ce9c 60bd
000001e0: 1fc8 39bd acb7 e6bd a88d 0fbd 605e 953c
000001f0: 55ae c1bb f0eb 77be 4de3 42be d1c0 f8bd
00000200: 9bce c5be dcfa 96be d461 85be 2278 43be
00000210: 2d9b d73d 92f1 b5bd 88de 663e 7686 91be
00000220: d9c1 193d 1365 52be a2df 233e 270b dabd
00000230: 80f3 0fbe 443f 043e 9f30 97be fcab bcbd
00000240: dd1d 8fbe c9c7 9e3e d76b 99be 0697 d23d
00000250: 2224 10bd d7e9 0ebe 4d2d 2d3e 4072 12be
00000260: 5d3d cdbd 959b 623d 1ce3 27be db0c bfbc
00000270: c295 83bc 5ec0 08be 1ff4 72bd b208 0abd
00000280: 3785 da3c 0c54 37be 1527 efbe 881c 6fbe
00000290: 51f5 67be b462 d1bd 8c07 b3be 250a 193c
000002a0: 9ec9 d9bc d823 aebe 13a7 853d 1916 95be
000002b0: 0a7c 3bbd 33f2 02bb c133 c73c fb4a ae3d
000002c0: 39d2 45bd 4c2c c8bc cb7a 5d3e b442 0c3f
000002d0: e500 1dbe 09fd fb3e 8ef0 08be 1cac b13c
000002e0: e8fa 903c 03a3 e8bd 6442 953c 68d1 ff3d
000002f0: 99c8 353e 8752 9f3d 4928 0b3e 96ef c4bd
00000300: f13f d93d dd07 f4bd 0e6b 143e 0888 b33e
00000310: ac3d c3bd 6ad6 04be e21e 7ebd 419f 383d
00000320: aefc 743d da2d e1be d8a2 173e b439 2ebe
00000330: 31bb c7bc 01e0 23be 7e3f aebd 2fa7 553e
00000340: dbfe 3abc 596e 2abe b859 803e a55b 01be
00000350: 848e b33d 03a5 98be 8f8c 2a3e 5acd e23c
00000360: dbff 6cbd 208f 083d b71c c43b d35a 373d
00000370: 6b3e a5be 1c9e b6bd 9fc8 38be 3ee8 913e
00000380: e4d5 c33d 8e33 e0be 1390 35be e9fe 9bbd
00000390: a590 3ebd 6d00 39bc c497 b53e 2929 49be
000003a0: a4da 8f3d c7fc 08be ddcb 523e dce4 af3d
000003b0: 5640 893c 58fd fd3d 8fce 7bbd 0724 5ebd
000003c0: eb13 993d 7dd6 423e 53a2 b73d 400b 85bd
000003d0: c19f d83d 2c96 82be 08ca 87bd 3d3a bbbd
000003e0: 1122 033e 548b 78be fb72 203e ab06 293c
000003f0: 6871 3f3e f2bc 263e 3c69 703e 1704 763e

mlp_extractor.policy_net.0.bias f4 [64]
0.00037033934 0.0 0.000175913 -0.0041169273 -0.008389185 0.0 1.3040242e-11 6.4693554e-06
4.4804616e-05 -0.0075225453 -1.7531119e-11 -0.00023588921 0.0019774712 -0.0040402142 -0.0016173138 -0.0015831346
-0.002998904 0.006869335 1.1299849e-06 0.00016334595 -0.010862681 -0.0047438163 1.2561235e-07 -0.0020660672
0.00068917184 0.0032286297 0.0016668732 6.630415e-06 0.0 0.00020103638 -0.0012658702 -0.0039623356
0.0023134614 -1.9621081e-10 0.0023463874 0.0023820717 4.7424055e-05 -0.00029480516 0.0 0.0006295398
0.0 0.0054284423 -0.0008580297 -0.0011842177 -0.0022251888 -0.0031271633 0.004981591 0.0
0.0016405947 -0.001052945 9.503458e-10 0.0 -7.086146e-09 0.0030091 -6.155119e-07 0.0
-0.0039744866 3.4413503e-08 -0.00016350306 3.6389672e-05 -0.0030148576 -1.1079193e-06 0.0026069148 0.0058675394
00000000: 1b2a c239 0000 0000 4975 3839 4ae7 86bb
00000010: cb72 09bc 0000 0000 0768 652d 5713 d936
00000020: 97ec 3b38 af7f f6bb 9234 9aad 0759 77b9
00000030: 7698 013b c663 84bb 0cfc d3ba 2f81 cfba
00000040: 4389 44bb 2918 e13b fca9 9735 d847 2b39
00000050: 63f9 31bc 0472 9bbb 0fe0 0634 db66 07bb
00000060: 8aa9 343a 6b97 533b fc7a da3a d57a de36
00000070: 0000 0000 4bcd 5239 8eeb a5ba 7bd6 81bb
00000080: 719d 173b 6fbc 57af d9c5 193b 881c 1c3b
00000090: 31e9 4638 1490 9ab9 0000 0000 b307 253a
000000a0: 0000 0000 13e1 b13b 66ed 60ba c137 9bba
000000b0: 79d4 11bb 18f1 4cbb 9d3c a33b 0000 0000
000000c0: 3909 d73a f902 8aba 529d 8230 0000 0000
000000d0: 667a f3b1 5234 453b a839 25b5 0000 0000
000000e0: 693c 82bb 0cce 1333 0572 2bb9 1da1 1838
000000f0: eb94 45bb d1b3 94b5 c6d8 2a3b 7d44 c03b

mlp_extractor.policy_net.2.weight f4 [64, 64]
-0.12726021 0.19669282 -0.071019664 0.12235127 -0.05234085 -0.021766927 -0.085966006 -0.26863107
-0.22342457 0.03439654 0.16942264 -0.09814528 -0.04469326 -0.03931868 -0.11988841 -0.12088412
0.03451604 0.23467815 0.208911 -0.042733826 0.2784534 -0.07163652 0.105303355 0.28979072
-0.23283601 -0.15186608 -0.030271042 -0.1433843 0.21483326 0.13711527 -0.38695127 -0.12176581
-0.17329477 -0.16412269 0.43352923 -0.08290374 0.04757945 -0.049892314 0.43769458 -0.023586163
0.07100686 -0.14273071 0.076767795 0.0070699053 0.071793854 -0.20804627 0.32329446 0.060974684
-0.2784163 -0.23712605 -0.009516073 0.049472768 0.021203583 -0.40068987 0.21684566 -0.35932192
0.112423 -0.044661276 0.023034787 -0.11455567 -0.10230827 0.039778423 0.030451184 -0.00788775
0.17026192 0.18040049 0.10496151 -0.060329024 0.14788763 -0.0072614886 -0.022108309 -0.04643982
0.0074939253 0.16344231 0.17034326 -0.15894695 -0.09583989 0.1431652 -0.07881298 -0.10323842
0.054866754 -0.13298759 0.086883746 0.18768059 -0.25944698 0.0608248 0.1580978 0.075570196
0.039213628 0.28547493 -0.06849571 0.2370764 -0.023898408 0.06342129 0.3092781 -0.13561618
0.2938668 -0.13114995 0.28198153 0.07912749 -0.053336844 0.29431695 0.016431991 0.100890934
0.26995248 0.029301744 0.17277321 -0.027771495 -0.24448878 -0.17585354 -0.11082106 -0.35358515
-0.25064108 0.15550964 -0.11157879 -0.356162 -0.11770767 -0.13017888 -0.16386287 -0.007435773
0.45917633 -0.028266553 -0.16192977 0.036824364 -0.0020384535 -0.43581492 0.12890105 0.21072651
-0.044927686 -0.22348696 0.04433247 0.0020665831 -0.20612718 0.34197953 -0.20569655 0.04669162
-0.039740644 0.03472655 0.03253074 0.42795727 0.14894214 -0.009707395 -0.081071034 0.13994089
0.021825483 0.04180794 -0.2209295 0.44137287 0.18775105 0.30844763 0.17220604 0.08740074
0.04643199 0.15838088 -0.35737422 0.1676107 -0.012150985 0.1512923 -0.09984902 0.106965974
0.22964333 -0.28602308 -0.047095716 -0.11771251 0.17650338 -0.17641412 0.031077776 0.20367834
0.099643975 0.049243018 0.03188337 -0.11944814 0.10465021 0.17949611 0.030283846 -0.054647285
0.07569849 0.08663169 0.070613824 -0.27935678 0.10649976 0.039929435 0.24140467 -0.14662035
0.31664065 0.1531884 0.05939451 -0.08143238 -0.008064709 0.3087495 -0.25983799 -0.30175826
-0.12969565 0.22340718 -0.23196618 0.07364049 0.029276202 -0.027593369 -0.026280012 0.30261996
0.011776835 -0.04981794 0.06576675 -0.012665438 -0.3389377 0.044205505 -0.0055997246 -0.11518199
0.08559845 0.1637858 0.23950918 0.026688846 -0.30948162 0.15987664 -0.048351638 -0.12479898
-0.09765898 0.017938439 0.20682158 0.03455583 -0.03503832 0.066572495 0.1164184 -0.20300634
-0.012959011 -0.1761328 -0.010640833 0.13443458 0.10891256 0.043322645 0.1832787 -0.20042698
0.2199395 0.44332296 -0.28495955 -0.069584996 0.11181991 0.31305432 -0.03616574 0.15168738
0.13747784 -0.16288999 0.0047955294 -0.17948963 -0.27844733 -0.15608081 0.056592457 -0.18978576
-0.18859555 0.44943058 -0.06794112 0.15992469 0.122386426 -0.040203 0.0061047236 -0.45341498
00000000: 8050 02be d869 493e c272 91bd 4d93 fa3d
00000010: 5c63 56bd 8e50 b2bc f20e b0bd 038a 89be
00000020: 69c9 64be 63e3 0c3d 217d 2d3e 6400 c9bd
00000030: 4810 37bd a00c 21bd 0e88 f5bd 1892 f7bd
00000040: b160 0d3d 784f 703e c4ec 553e aa09 2fbd
00000050: 7291 8e3e 2bb6 92bd 49a9 d73d 735f 943e
00000060: 906c 6ebe c882 1bbe fafa f7bc 55d3 12be
00000070: 40fd 5b3e f267 0c3e 7a1e c6be 5a60 f9bd
00000080: 2f74 31be c70f 28be 8bf7 dd3e 70c9 a9bd
00000090: abe2 423d e25b 4cbd 8119 e03e c537 c1bc
000000a0: 0b6c 913d 0028 12be 6f38 9d3d aaaa e73b
000000b0: a808 933d 150a 55be da86 a53e 97c0 793d
000000c0: 958c 8ebe 2cd1 72be 4ee9 1bbc f5a3 4a3d
000000d0: 23b3 ad3c 3927 cdbe ca0c 5e3e 0bf9 b7be
000000e0: 083e e63d beee 36bd 73b3 bc3c 2a9c eabd
000000f0: 0087 d1bd b3ee 223d c374 f93c 9f3b 01bc
00000100: 2459 2e3e e8ba 383e 0ff6 d63d 911b 77bd
00000110: db6f 173e c8f1 edbb 7c1c b5bc ae37 3ebd
00000120: 9a8f f53b 6c5d 273e 776e 2e3e fdc2 22be
00000130: b447 c4bd e699 123e b368 a1bd aa6e d3bd
00000140: f6bb 603d e62d 08be 1bf0 b13d 572f 403e
00000150: 3cd6 84be 6d23 793d 64e4 213e 8cc4 9a3d
00000160: 789e 203d c529 923e 7b47 8cbd 28c4 723e
00000170: 98c6 c3bc 05e3 813d b359 9e3e f8de 0abe
00000180: b675 963e 2c4c 06be e25f 903e 980d a23d
00000190: bc77 5abd b6b0 963e 629c 863c e89f ce3d
000001a0: 3637 8a3e 360a f03c 76eb 303e 0c81 e3bc
000001b0: 445b 7abe f312 34be 27f6 e2bd 1d09 b5be
000001c0: 0754 80be eb3d 1f3e 6c83 e4bd de5a b6be
000001d0: b810 f1bd 9d4d 05be abcb 27be c9a7 f3bb
000001e0: 2919 eb3e 428f e7bc ebd0 25be 25d5 163d
000001f0: 9397 05bb 2223 dfbe a3fe 033e b1c8 573e
00000200: 1806 38bd c4d9 64be f795 353d 836f 073b
00000210: 0113 53be f117 af3e 1ea2 52be b63f 3f3d
00000220: 16c7 22bd 6d3d 0e3d f43e 053d 371d db3e
00000230: 4a84 183e c40b 1fbc 9208 a6bd aa4c 0f3e
00000240: 5bcb b23c cd3e 2b3d 583b 62be a0fb e13e
00000250: d041 403e d9ec 9d3e c856 303e 29ff b23d
00000260: 782f 3e3d 992e 223e c1f9 b6be 24a2 2b3e
00000270: ed14 47bc 5eec 1a3e a57d ccbd fa10 db3d
00000280: 9f27 6b3e 9e71 92be 70e7 40bd 4213 f1bd
00000290: 4dbd 343e e7a5 34be d296 fe3c 0e91 503e
000002a0: 2412 cc3d 0cb3 493d 2398 023d 3aa1 f4bd
000002b0: d952 d63d d4cd 373e d415 f83c d5d5 5fbd
000002c0: cf07 9b3d f56b b13d fb9d 903d da07 8fbe
000002d0: 8c1c da3d 0c8d 233d c932 773e a523 16be
000002e0: b91e a23e 6cdd 1c3e a847 733d 05c6 a6bd
000002f0: d721 04bc 6a14 9e3e 7c09 85be 0f80 9abe
00000300: f0ce 04be dac4 643e 8b88 6dbe d3d0 963d
00000310: a5d4 ef3c 7d0b e2bc 2e49 d7bc 01f1 9a3e
00000320: a0f3 403c e50d 4cbd b8b0 863d b282 4fbc
00000330: 3e89 adbe d510 353d e57d b7bb 89e4 ebbd
00000340: 3d4e af3d 77b7 273e e541 753e 91a2 da3c
00000350: 6074 9ebe b4b6 233e 5e0c 46bd 9c96 ffbd
00000360: 6e01 c8bd a2f3 923c 09c9 533e 6a8a 0d3d
00000370: 5784 0fbd 2957 883d c56c ee3d e5e0 4fbe
00000380: 0852 54bc 285c 34be e356 2ebc 38a9 093e
00000390: 8c0d df3d 1673 313d 69ad 3b3e bb3c 4dbe
000003a0: d237 613e 3afb e23e 38e6 91be 9482 8ebd
000003b0: d601 e53d a848 a03e 8722 14bd f053 1b3e
000003c0: fec6 0c3e a2cc 26be d123 9d3b 21cc 37be
000003d0: a690 8ebe a6d3 1fbe 7ecd 673d 3357 42be
000003e0: 311f 41be c41b e63e b724 8bbd 4cc3 233e
000003f0: bca5 fa3d e7ab 24bd 220a c83b 0226 e8be

mlp_extractor.policy_net.2.bias f4 [64]
-0.012019704 0.017285714 -0.016657855 -0.0008366049 -0.017433092 -0.014705178 0.0072708097 -0.032181717
0.00091956 -0.021188082 -0.025777113 -0.0066839163 0.0126366615 0.01593131 -0.026273986 -0.02666376
-0.020515483 0.031165104 0.017490815 -0.031504784 -0.01897386 0.0100458795 0.014019693 -0.017659191
-0.01797813 -0.013729342 0.012691714 -0.02603539 0.02319491 0.007748289 0.024247829 0.020481946
-0.0030550018 -0.01580788 -0.010172813 -0.013230457 -0.029431699 0.025392845 -0.009422116 0.025680317
-0.015335145 -0.007508513 0.013521534 0.025792604 0.01675451 -0.017400583 0.020038888 -0.035897944
-0.004290369 0.0018686597 0.027887471 0.007712336 0.017413571 -0.0078040664 0.022311749 -0.019253958
0.022677485 0.019216063 0.0006145911 -0.01848684 -7.590855e-05 0.022178248 -0.012290539 -0.02256998
00000000: 4bee 44bc c59a 8d3c 0e76 88bc 9b4f 5bba
00000010: d8cf 8ebc fded 70bc f93f ee3b fad0 03bd
00000020: a10e 713a a192 adbc 862a d3bc c104 dbbb
00000030: 000a 4f3c 6182 823c 8b3c d7bc f56d dabc
00000040: 1610 a8bc f64d ff3c e648 8f3c 290b 01bd
00000050: 126f 9bbc 7997 243c dbb2 653c 02aa 90bc
00000060: df46 93bc 09f1 60bc e8f0 4f3c 2c48 d5bc
00000070: 4003 be3c 5ce5 fd3b 62a3 c63c c1c9 a73c
00000080: 6d36 48bb 877f 81bc dfab 26bc 8fc4 58bc
00000090: bf1a f1bc a804 d03c 385f 1abc 875f d23c
000000a0: 4340 7bbc f909 f6bb 6d89 5d3c 034b d33c
000000b0: c140 893c ab8b 8ebc 9828 a43c b909 13bd
000000c0: 3996 8cbb d1ed f43a 4474 e43c c3b7 fc3b
000000d0: e8a6 8e3c 41b9 ffbb 21c7 b63c 7aba 9dbc
000000e0: 22c6 b93c 016b 9d3c 831c 213a b771 97bc
000000f0: 1831 9fb8 28af b53c 425e 49bc aee4 b8bc

mlp_extractor.value_net.0.weight f4 [64, 27]
-0.050397687 0.102513015 0.17166577 0.06403366 -0.051391974 0.07209251 -0.16040885 0.13795462
-0.015292292 -0.15506314 0.13053782 0.11750928 0.08149467 0.17261042 0.054078713 -0.16920362
-0.018016025 0.14780143 0.06941063 -0.29272044 0.09033951 -0.09753289 0.017219396 -0.12846284
0.28039336 0.25207436 0.1366426 0.050053738 -0.097117454 0.2057019 0.060669027 0.026567303
0.16219935 -0.0015891731 0.03360667 0.057851154 -0.53537714 -0.060444027 -0.08921747 -0.038507
-0.09999368 0.2548416 -0.00033225594 0.09232893 0.3222473 0.2971196 0.0071489667 -0.22239734
-0.09850728 -0.0289951 0.29078874 -0.12736098 -0.0062397798 -0.29076815 0.22571243 0.3203854
0.08210831 0.11817268 0.27928385 -0.09269267 0.40439212 -0.16087098 0.12684974 0.19044437
0.215256 -0.03613716 -0.5257691 -0.03932168 -0.13854268 0.16814889 0.2656798 0.059110478
0.085358165 -0.076741375 0.27092937 -0.0018194908 0.20815857 -0.17919569 0.030940492 -0.004528516
0.16892351 0.2531064 0.10703032 0.2129354 -0.4427282 -0.17707367 -0.065275505 0.30978557
-0.044850238 -0.12038947 0.2371143 -0.15684892 -0.1444926 0.1770498 0.20533769 0.20128311
-0.019993553 -0.060096424 0.3192013 -0.14077845 -0.14911924 -0.26727116 0.19775812 -0.16215532
0.19090824 0.00081031513 0.27825466 0.0152281895 -0.22700313 -0.10829398 -0.1811028 0.08825622
-0.057448614 0.19020863 0.40088555 0.060840223 -0.04863133 0.036708284 0.070771575 -0.33764476
-0.13004042 0.14275746 0.22307967 0.0014422382 -0.21551785 0.03884896 0.08849324 -0.00479538
0.121556774 -0.1076581 -0.28062055 -0.05388354 -0.0056652655 0.2331353 0.05932018 -0.17256962
0.13804741 0.2386545 0.026934903 -0.47057396 -0.14701647 0.18787855 -0.08257662 0.28083402
0.05419505 0.25473076 -0.017351856 -0.03083637 0.21236742 0.20846282 0.2160551 -0.09515272
-0.18246175 0.05967655 0.09893397 0.019386752 0.047754645 0.20889655 0.12142702 0.08591582
-0.26975358 0.033369765 -0.2962317 0.25847784 0.02634876 -0.021370709 0.3654605 -0.25128162
0.16724107 0.072401844 -0.1758436 -0.07486408 0.08692833 -0.34524786 -0.07686993 0.0080183195
0.043854248 -0.3122165 0.2534014 -0.16934185 -0.38786128 -0.2544329 -0.18153761 -0.06319124
0.26891088 -0.09029968 -0.11762465 0.062488288 0.15567248 0.16130005 0.42764956 -0.114702806
0.08201153 0.09805518 -0.25830558 -0.039187785 0.010902578 -0.10454425 0.09758122 0.07691899
-0.12085133 -0.022520632 0.15612242 -0.39349914 0.14387597 -0.2515259 0.36172184 -0.042409837
0.22066577 -0.045258284 -0.09996096 -0.20404525 0.15627272 -0.031028481 0.014703736 -0.11918987
0.105685785 -0.077100754 -0.02110876 -0.047253687 0.058473777 0.034474168 0.17210178 -0.22707139
-0.0063113114 -0.16611066 0.13595231 0.06363048 -0.0009442915 -0.45529765 0.09708103 -0.08886957
-0.1134278 -0.31541264 -0.00686635 0.39363024 -0.05365561 -0.22997014 0.1511933 -0.15200204
-0.10564895 -0.07876182 -0.042871322 0.01297621 -0.059318002 0.21300943 -0.014196433 -0.060664345
-0.005410779 -0.0061001168 -0.17603107 0.20604047 0.23525944 -0.082838126 -0.14401074 0.25514668
00000000: ce6d 4ebd 58f2 d13d 27c9 2f3e 1424 833d
00000010: 6480 52bd 3da5 933d 3842 24be fa43 0d3e
00000020: 868c 7abc dfc8 1ebe b5ab 053e b5a8 f03d
00000030: ade6 a63d c9c0 303e a481 5d3d b743 2dbe
00000040: 5896 93bc 4259 173e 2927 8e3d 74df 95be
00000050: ec03 b93d 53bf c7bd b10f 8d3c c38b 03be
00000060: b88f 8f3e e40f 813e 0aec 0b3e 2605 4d3d
00000070: 84e5 c6bd 85a3 523e 1680 783d aca3 d93c
00000080: 9617 263e cd4b d0ba 26a7 093d 55f5 6c3d
00000090: 7a0e 09bf 2894 77bd a6b7 b6bd 84b9 1dbd
000000a0: 7dc9 ccbd 997a 823e a332 aeb9 f316 bd3d
000000b0: 99fd a43e 0f20 983e e141 ea3b 21bc 63be
000000c0: 2fbe c9bd 2287 edbc 43e2 943e eb6a 02be
000000d0: 1177 ccbb 90df 94be 2921 673e 8e09 a43e
000000e0: 6728 a83d 8504 f23d 4bfe 8e3e a8d5 bdbd
000000f0: 7c0c cf3e 5dbb 24be e6e4 013e d903 433e
00000100: 126c 5c3e 8f04 14bd ce98 06bf c50f 21bd
00000110: 22de 0dbe 392f 2c3e 2f07 883e d41d 723d
00000120: 43d0 ae3d 952a 9dbd 41b7 8a3e fb7b eeba
00000130: 8527 553e 137f 37be ea76 fd3c f263 94bb
00000140: 49fa 2c3e 2997 813e b632 db3d bd0b 5a3e
00000150: 45ad e2be cd52 35be 2aaf 85bd 379c 9e3e
00000160: e2b4 37bd c18e f6bd 17ce 723e 019d 20be
00000170: def5 13be 8b4c 353e 0b44 523e 291d 4e3e
00000180: 85c9 a3bc ab27 76bd 5a6e a33e 3a28 10be
00000190: b7b2 18be c4d7 88be 1b81 4a3e 0b0c 26be
000001a0: 737d 433e 546b 543a 6577 8e3e a87f 793c
000001b0: 8273 68be 3cc9 ddbd 0373 39be adbf b43d
000001c0: 3d4f 6bbd 0dc6 423e df40 cd3e 9933 793d
000001d0: a531 47bd 6d5b 163d b0f0 903d c6df acbe
000001e0: 5129 05be 032f 123e ff6e 643e 7c09 bd3a
000001f0: b6b0 5cbe 1620 1f3d f23b b53d 9022 9dbb
00000200: c2f2 f83d da7b dcbd 7fad 8fbe fdb4 5cbd
00000210: b1a3 b9bb 05bb 6e3e b8f9 723d 17b6 30be
00000220: 4d5c 0d3e d861 743e 96a6 dc3c 12ef f0be
00000230: 7c8b 16be 3c63 403e ee1d a9bd 7ac9 8f3e
00000240: a1fb 5d3d 126c 823e 7b25 8ebc 8e9c fcbc
00000250: d876 593e 4777 553e 8c3d 5d3e 6edf c2bd
00000260: 41d7 3abe 666f 743d e59d ca3d f7d0 9e3c
00000270: 609a 433d fae8 553e bbae f83d a2f4 af3d
00000280: 241d 8abe bcae 083d aeab 97be 3557 843e
00000290: 5bd9 d73c a011 afbc a31d bb3e fca7 80be
000002a0: 3e41 2b3e 6b47 943d 5810 34be 5752 99bd
000002b0: 7b07 b23d 54c4 b0be fb6d 9dbd 455f 033c
000002c0: 83a0 333d d7da 9fbe d4bd 813e f367 2dbe
000002d0: c195 c6be 0745 82be ffe4 39be 696a 81bd
000002e0: b0ae 893e 0aef b8bd 31e5 f0bd b8f3 7f3d
000002f0: 9b68 1f3e d72b 253e e2f4 da3e 4ee9 eabd
00000300: a9f5 a73d 27d1 c83d a140 84be 5f83 20bd
00000310: baa0 323c 4c1b d6bd aad8 c73d b487 9d3d
00000320: e780 f7bd 307d b8bc 8ede 1f3e b878 c9be
00000330: 3954 133e 01c8 80be 9b33 b93e f0b5 2dbd
00000340: 35f6 613e c060 39bd 55b8 ccbd 3df1 50be
00000350: f505 203e 712f febc f0e7 703c d219 f4bd
00000360: ca71 d83d 00e7 9dbd 47ec acbc 158d 41bd
00000370: 3382 6f3d c934 0d3d 733b 303e 6785 68be
00000380: 1ecf cebb ea18 2abe 1537 0b3e b250 823d
00000390: 548a 77ba c61c e9be 6bd2 c63d 4001 b6bd
000003a0: d64c e8bd c47d a1be 1eff e0bb e789 c93e
000003b0: fcc5 5bbd 4b7d 6bbe 6bd2 1a3e 6ca6 1bbe
000003c0: 7a5e d8bd e14d a1bd d799 2fbd 2b9a 543c
000003d0: 6ff7 72bd 251f 5a3e 2898 68bc 2d7b 78bd
000003e0: e74c b1bb 7de3 c7bb 7d41 34be 46fc 523e
000003f0: dae7 703e 09a7 a9bd 8d77 13be 96a2 823e

mlp_extractor.value_net.0.bias f4 [64]
0.00014459221 0.0 0.022922486 4.6620283e-08 -0.010272311 3.5146275e-07 0.0099906 0.008838498
-0.012946928 -0.008867091 2.1246729e-09 0.0034640885 -0.0116467895 0.0067054033 -0.006937533 0.008342471
0.004024456 -0.0055946927 0.030354125 7.5016555e-07 0.009596212 0.009721729 9.3531565e-09 0.0067568733
0.0008278971 -0.012481646 -0.02385453 -0.012966853 -7.445712e-08 -0.009325902 -0.002260985 0.015056462
-0.0016940398 -0.01593615 -0.02600842 -0.010839367 0.011084501 0.0 0.0010700739 -0.0088869175
-0.009185036 0.008353054 -0.014151831 -0.0016914156 0.0 -0.027698351 -0.007749765 1.2350063e-07
-1.3960517e-05 0.04374431 0.00052180997 0.0 -0.029620405 0.0 5.0445884e-08 7.4174686e-06
-0.006882181 -0.009180869 -0.010680866 -2.9756722e-05 0.01582465 -0.013029063 -0.011668348 -0.0011721576
00000000: ad9d 1739 0000 0000 f0c7 bb3c 8b3b 4833
00000010: 324d 28bc acb0 bc34 9daf 233c 59cf 103c
00000020: 5a1f 54bc 4647 11bc a401 1231 c305 633b
00000030: 2dd2 3ebc 00b9 db3b 3f54 e3bb dcae 083c
00000040: 95df 833b af53 b7bb 37a9 f83c fc5e 4935
00000050: 6e39 1d3c e347 1f3c 9eaf 2032 c368 dd3b
00000060: 3c07 593a d17f 4cbc 936a c3bc ec72 54bc
00000070: 3ce5 9fb3 abcb 18bc 092d 14bb 61af 763c
00000080: 8b0a deba 878c 82bc 9c0f d5bc 9a97 31bc
00000090: c49b 353c 0000 0000 b941 8c3a 6f9a 11bc
000000a0: d57c 16bc 3fdb 083c 15dd 67bc 7db2 ddba
000000b0: 0000 0000 a7e7 e2bc bef1 fdbb 989b 0434
000000c0: f737 6ab7 3c2d 333d 13ca 083a 0000 0000
000000d0: 7ea6 f2bc 0000 0000 d6a9 5833 92e3 f836
000000e0: eb83 e1bb 5b6b 16bc cdfe 2ebc 139e f9b7
000000f0: b2a2 813c da77 55bc 992c 3fbc 15a3 99ba

mlp_extractor.value_net.2.weight f4 [64, 64]
0.18846287 -0.16743228 0.09709042 0.26603204 0.15508457 0.2269437 -0.091174774 -0.044147223
-0.109903924 -0.013803778 -0.079294 -0.12468838 -0.37034258 0.27827182 -0.1907005 -0.06924589
0.2900349 0.024972843 0.34483972 -0.19506249 0.13475655 0.20853528 -0.26427567 0.21697432
0.09171921 -0.29197362 -0.050541088 0.023173353 0.018267198 -0.12482742 0.10724913 0.10662108
-0.21829413 0.020305865 0.03944271 0.090850346 0.0043151705 0.15061794 -0.24685878 -0.1256679
-0.12860906 -0.036318637 0.39785022 -0.14075826 0.108230524 -0.031173937 -0.2832031 -0.09100604
-0.042217057 0.06288109 -0.06919355 0.21563676 -0.0586655 0.2398614 0.18056577 -0.31892973
0.24860132 -0.13682885 0.115411766 0.30864114 -0.08227196 0.16837376 0.011484946 -0.013870996
-0.20589647 0.02920382 0.17557894 -0.2962709 0.2733814 -0.122034915 -0.24125323 -0.02829041
0.19126768 0.027580064 -0.070966326 0.002464149 0.1252646 0.2960951 0.10489681 -0.13691938
-0.087870225 -0.05625969 -0.27063987 -0.069685854 0.39931256 -0.0044224975 0.12986873 0.042874552
0.02350196 0.029065352 0.08721047 0.21236257 0.1849863 0.28169733 0.1489111 0.022561595
0.15394856 0.45236966 0.21750256 -0.24577013 -0.35291165 -0.03757432 0.077509314 0.2544654
-0.16433474 0.33984312 -0.0070671677 -0.08307448 -0.22621955 -0.08000527 0.11836128 -0.096540555
-0.24984086 0.20973125 -0.31246355 0.07542796 -0.01890347 0.055825576 0.101465024 -0.03640098
-0.08092135 -0.097707585 -0.05865069 0.22607233 -0.14792575 -0.119780056 0.11049567 -0.04931358
-0.17118461 -0.10611034 -0.18297763 0.02202034 -0.34299508 0.0155382315 0.06900594 0.20746012
-0.15990359 0.10408262 -0.1240619 0.4374649 0.14728197 -0.33830464 0.13450192 -0.057081096
-0.055620786 -0.22943613 -0.25934467 0.0598868 0.20874207 0.2647726 0.08980338 -0.25304782
0.24162488 -0.15507446 0.16545184 -0.033664897 -0.11229883 -0.20747346 0.095483646 -0.23324384
-0.13422395 0.070891276 0.2859858 -0.12203049 0.17350462 0.12224463 0.09652552 -0.060860414
0.0586036 0.004491414 0.277188 -0.19979532 -0.1309143 -0.08523167 0.0868679 -0.22707409
-0.079473495 0.31659734 -0.0060575353 0.19932002 0.038022585 -0.012416376 0.06850989 -0.06836656
0.067577414 0.47721976 -0.13473204 0.07758686 -0.0066976673 -0.008405057 -0.14497201 -0.2403349
0.004739822 0.007706301 -0.02176101 -0.109206185 -0.2151586 0.19509315 0.06004163 -0.07814168
-0.09391259 0.07590418 -0.1651305 -0.16564286 -0.1042001 -0.036147717 -0.41075304 0.046450708
-0.18752514 -0.14102165 0.2568199 -0.026876224 0.019275058 0.03818075 0.045765404 -0.0061739907
0.12519033 -0.12384497 -0.07087599 0.052083552 0.06945182 -0.18286484 -0.07181248 0.065171294
0.30268312 0.24778287 -0.2049965 -0.10305944 -0.10435923 -0.15717386 0.16194345 -0.21945989
0.12878333 0.017939182 0.22481069 -0.34633723 -0.21238397 0.15638308 -0.35296103 0.13948844
0.056077156 0.49449253 -0.044881087 -0.32832396 -0.07951089 0.034201324 -0.2594136 0.35261896
0.050915882 -0.2596112 -0.16893981 -0.1613547 -0.13776265 0.23471004 -0.0023880939 0.02769744
00000000: 69fc 403e 5e73 2bbe 58d7 c63d 5a35 883e
00000010: 7dce 1e3e ee63 683e d7b9 babd b8d3 34bd
00000020: 4f15 e1bd 3e29 62bc e564 a2bd 9f5c ffbd
00000030: 8b9d bdbe a579 8e3e fe46 43be cad0 8dbd
00000040: 747f 943e d993 cc3c d58e b03e 76be 47be
00000050: 9ffd 093e 468a 553e 244f 87be 842e 5e3e
00000060: 48d7 bb3d 917d 95be 2c04 4fbd 0bd6 bd3c
00000070: 17a5 953c 85a5 ffbd 6fa5 db3d 275c da3d
00000080: 7f88 5fbe 7c58 a63c ae8e 213d bf0f ba3d
00000090: 4666 8d3b 973b 1a3e 8cc8 7cbe 16af 00be
000000a0: 18b2 03be dac2 14bd 06b3 cb3e ef22 10be
000000b0: f7a7 dd3d 7c60 ffbc ffff 90be 6061 babd
000000c0: cbeb 2cbd cdc7 803d 59b5 8dbd e2cf 5c3e
000000d0: 3c4b 70bd 3a9e 753e 3ce6 383e c24a a3be
000000e0: 5891 7e3e dd1c 0cbe 015d ec3d 3606 9e3e
000000f0: 347e a8bd 2c6a 2c3e 5b2b 3c3c 2d43 63bc
00000100: 86d6 52be d93c ef3c f7ca 333e d2b0 97be
00000110: a6f8 8b3e 71ed f9bd 160b 77be 4ac1 e7bc
00000120: addb 433e 96ef e13c cb56 91bd 8f7d 213b
00000130: 5d45 003e c799 973e 24d4 d63d 9834 0cbe
00000140: 4ef5 b3bd 9070 66bd 4f91 8abe 75b7 8ebd
00000150: b272 cc3e 99ea 90bb 4ffc 043e 3a9d 2f3d
00000160: 2f87 c03c 761a ee3c 679b b23d 9375 593e
00000170: 0c6d 3d3e a23a 903e 277c 183e 18d3 b83c
00000180: b1a4 1d3e ff9c e73e feb8 5e3e 2aab 7bbe
00000190: d6b0 b4be 88e7 19bd 34bd 9e3d 4a49 823e
000001a0: 5e47 28be ebff ad3e b393 e7bb f422 aabd
000001b0: 19a6 67be ced9 a3bd 6667 f23d 0eb7 c5bd
000001c0: 48d6 7fbe cac3 563e 39fb 9fbe f979 9a3d
000001d0: 73db 9abc 5ca9 643d e5cc cf3d 3219 15bd
000001e0: 18ba a5bd ea1a c8bd b53b 70bd 817f 673e
000001f0: d979 17be 3f4f f5bd 8e4b e23d 09fd 49bd
00000200: 054b 2fbe 6150 d9bd 7d5e 3bbe 0064 b43c
00000210: 0d9d afbe 1194 7e3c fc52 8d3d 6d70 543e
00000220: c4bd 23be 4529 d53d 2a14 febd 66fb df3e
00000230: 16d1 163e 4436 adbe dfba 093e decd 69bd
00000240: 9fd2 63bd 4ef1 6abe d3c8 84be dc4b 753d
00000250: 7bc0 553e 4690 873e d6ea b73d 7c8f 81be
00000260: 836c 773e d7cb 1ebe 356c 293e 34e4 09bd
00000270: eefc e5bd ec73 54be ee8c c33d 79d7 6ebe
00000280: 0172 09be 722f 913d bb6c 923e 1feb f9bd
00000290: 32ab 313e 645b fa3d 2caf c53d c548 79bd
000002a0: 540a 703d b62c 933b 96eb 8d3e 2597 4cbe
000002b0: 660e 06be f18d aebd cce7 b13d 1c86 68be
000002c0: 00c3 a2bd 0c19 a23e 4a7e c6bb 8c1a 4c3e
000002d0: 92bd 1b3d 0e6e 4bbc ea4e 8c3d c403 8cbd
000002e0: 0766 8a3d 2656 f43e 32f7 09be dce5 9e3d
000002f0: 1b78 dbbb 5db5 09bc 8b73 14be 5a1a 76be
00000300: 8250 9b3b 2385 fc3b 2544 b2bc 7ea7 dfbd
00000310: 8952 5cbe 80c6 473e 36ee 753d bf08 a0bd
00000320: 3e55 c0bd a773 9b3d f817 29be 489e 29be
00000330: dd66 d5bd a10f 14bd 394e d2be 1943 3e3d
00000340: 9706 40be fb67 10be e67d 833e 872b dcbc
00000350: bae6 9d3c 6b63 1c3d 8174 3b3d 304f cabb
00000360: e531 003e 6ea2 fdbd 6e27 91bd 9055 553d
00000370: c13c 8e3d ec40 3bbe 6c12 93bd 8778 853d
00000380: 48f9 9a3e cbba 7d3e 9aea 51be d410 d3bd
00000390: 4bba d5bd 2ff2 20be 81d4 253e 18ba 60be
000003a0: c7df 033e 31f5 923c c634 663e 1d53 b1be
000003b0: 2f7b 59be e322 203e 4fb7 b4be 0fd6 0e3e
000003c0: 29b1 653d 202e fd3e 3bd5 37bd 141a a8be
000003d0: 9bd6 a2bd b016 0c3d dcd1 84be 798a b43e
000003e0: 2c8d 503d c2eb 84be 8ffe 2cbe 2b3a 25be
000003f0: a711 0dbe d457 703e 9181 1cbb bee5 e23c

mlp_extractor.value_net.2.bias f4 [64]
-0.000104518316 -0.0306488 -0.03984563 0.038090292 0.050454006 0.03744923 0.030753475 -0.03835478
0.014216194 0.020011265 0.041678056 -0.02473251 -0.044176403 0.03869358 0.028275171 -0.032819327
-0.035119154 0.02542684 0.042106867 -0.043484766 0.0345043 0.030991236 -0.038489215 -0.03466824
-0.041768655 -0.023858102 -0.02520163 0.029375954 -0.03987786 0.030674681 -0.026177911 0.020202748
-0.02385543 0.04532277 -0.05730858 -0.030659936 -0.04324567 0.024813578 0.0107025495 0.006233597
-0.03504337 0.04046453 0.03593275 0.05164974 -0.02316105 0.027624352 0.03320783 0.048737902
0.04214289 -0.05260158 -0.042499196 -0.052185163 -0.01206073 0.027445879 0.04207866 0.055473242
0.014750544 0.06798713 0.059822515 0.03309051 -0.031069532 -0.031385113 0.027670747 -0.021363594
00000000: d830 dbb8 3113 fbbc 2c35 23bd 9104 1c3d
00000010: dca8 4e3d 5d64 193d b6ee fb3c e719 1dbd
00000020: 0aeb 683c aaee a33c 9cb6 2a3d d59b cabc
00000030: 51f2 34bd 297d 1e3d 55a1 e73c 8f6d 06bd
00000040: 1ad9 0fbd f34b d03c 4078 2c3d 151d 32bd
00000050: 6254 0d3d 55e1 fd3c dea6 1dbd 4900 0ebd
00000060: 9c15 2bbd 1172 c3bc a673 cebc d7a5 f03c
00000070: f856 23bd 7849 fb3c 0f73 d6bc 3c80 a53c
00000080: 766c c3bc 5ea4 393d 67bc 6abd 8c2a fbbc
00000090: 5f22 31bd d845 cb3c bf59 2f3c 3443 cc3b
000000a0: a389 0fbd 23be 253d 382e 133d ae8e 533d
000000b0: 3ebc bdbc 774c e23c ef04 083d 65a1 473d
000000c0: 069e 2c3d c174 57bd a313 2ebd 1cc0 55bd
000000d0: 5e9a 45bc 2ed6 e03c ac5a 2c3d e937 633d
000000e0: 44ac 713c d63c 8b3d 7408 753d ea89 073d
000000f0: 8885 febc ad8d 00bd c3ad e23c b402 afbc

action_net.weight f4 [18, 64]
-0.008641402 -0.0005605345 -0.0021470885 0.014235928 -0.01833825 0.0044431207 0.0028738263 -0.00141577
-0.009823875 0.010176784 -0.016210504 -0.008991715 0.0051763384 0.0073566968 0.00690146 -0.017926898
-0.00452475 -0.00095930684 0.013211414 -0.021848707 0.00073023536 0.003290984 -0.00019760034 -0.00048752004
-0.0081560705 0.00020580026 0.002903022 -0.0016895536 0.007462355 0.008236563 0.016134584 0.005200379
-0.001105559 0.0030975633 -0.0044872193 0.0020886916 -0.0047059637 0.010671656 -0.00971409 0.006454876
-0.0033798115 -0.0016778037 -0.00029407628 0.0009954921 0.004358615 -0.016836805 -0.0009974475 -0.013566138
-0.008773105 -0.0050017536 0.01774066 -0.00014605666 0.007877786 -0.00083300786 0.0011369714 -0.0011234847
-0.0047287797 0.010412748 0.0012753423 0.0006818398 -0.0054549626 0.0040985225 -0.008094814 -0.005734576
-0.0027441424 0.02572354 -0.018107379 -0.041604087 0.0033995039 -0.043836527 0.008257447 -0.01867968
-0.00029494337 -0.006009221 -0.011923142 -0.02081325 0.0016767405 0.019222584 -0.007113387 -0.04928966
-0.044227853 0.024777254 0.024083966 -0.02755159 -0.009649578 0.021182712 0.01880352 -0.01645991
-0.018796176 -0.013322429 0.017637856 -0.03612895 0.016790733 0.014161961 0.00073296565 0.018512305
-0.018481553 -0.027769713 -0.022111323 -0.0075228764 -0.025326977 0.036475368 0.0021281869 0.01992951
-0.01896219 -0.0128197 -0.0070627644 0.017098416 0.020733489 0.011604808 0.006388687 -0.005769103
-0.021790924 -0.0019276764 0.019633625 -0.005383523 0.005201471 -0.020396084 0.046366666 -0.021960989
0.034522984 0.023749331 0.0009900711 -0.018220505 -0.021213803 0.02259064 -0.0065932325 -0.015280181
0.012947112 -0.024170589 0.02190836 0.033751387 -0.025004687 0.04259806 0.016729124 0.019203855
-0.017387025 0.012716463 -0.001194148 0.017783044 -0.017764857 -0.017478213 0.011731912 0.010545966
0.014990883 -0.02159308 -0.0104292575 0.007896971 0.023997445 -0.017439233 -0.008114511 0.01685428
-0.008340159 0.010347891 -0.023364767 0.029216653 -0.040063467 -0.023514926 0.015598287 -0.017656866
0.017508075 0.029530723 0.02074336 0.025915418 0.020758154 -0.024719214 0.016561631 -0.015955398
0.019434866 0.016594494 -0.025787985 -0.011162377 -0.017601619 0.008783961 0.045437623 -0.0056691756
0.018014401 0.015587063 -0.022605512 0.0010640451 -0.02138758 0.020317826 -0.039801173 0.020244814
-0.056713656 -0.015272159 0.052242633 0.011405047 0.018395007 -0.021593736 -0.022471892 0.021569489
-0.008993102 0.04302359 -0.03637053 -0.01131578 -0.012167863 -0.029279275 -0.017820146 -0.041372817
0.022882143 -0.03515544 -0.011357554 -0.04454759 0.040492807 0.044074573 -0.049720123 -0.036092706
-0.0420509 0.038581043 0.04993316 -0.032942805 -0.046167605 0.04365356 0.04347097 -0.039478116
-0.017485516 -0.04461751 0.048113734 -0.051802013 0.03987995 0.039326247 0.006239586 0.042057462
-0.040006187 -0.041970015 -0.042850494 -0.040073097 -0.036428113 0.046304528 -0.026870845 0.0370241
-0.04010803 -0.038872927 0.04033121 0.04221355 0.04995929 -0.025754929 0.00531511 -0.004532412
-0.03712016 -0.045338728 0.04368063 0.014557901 0.03860916 -0.0410958 0.036686882 -0.042014897
0.055854138 0.05222833 -0.019748867 -0.03917707 -0.048413783 0.03904361 0.007605345 -0.03959863
00000000: ab94 0dbc d5f0 12ba 2bb6 0cbb cf3d 693c
00000010: 193a 96bc 9997 913b ce56 3c3b 5c91 b9ba
00000020: 51f4 20bc 87bc 263c e4cb 84bc fc51 13bc
00000030: 469e a93b 7210 f13b a425 e23b 6edb 92bc
00000040: 5b44 94bb fe79 7bba b074 583c 0ffc b2bc
00000050: 446d 3f3a 8dad 573b f032 4fb9 d599 ffb9
00000060: 0aa1 05bc 16cc 5739 a140 3e3b 0374 ddba
00000070: c586 f43b a6f2 063c ad2c 843c f167 aa3b
00000080: 67e8 90ba 7d00 4b3b 8609 93bb 6ee2 083b
00000090: 7c34 9abb 2bd8 2e3c d927 1fbc 6d83 d33b
000000a0: d47f 5dbb c0e9 dbba 402e 9ab9 2c7b 823a
000000b0: b6d2 8e3b 57ed 89bc c9bc 82ba 8244 5ebc
000000c0: 12bd 0fbc c0e5 a3bb dc54 913c c926 19b9
000000d0: d411 013c 365e 5aba 6e06 953a e441 93ba
000000e0: e1f3 9abb 3b9a 2a3c 6329 a73a 7fbd 323a
000000f0: 8bbf b2bb e64c 863b 1ca0 04bc 1ce9 bbbb
00000100: 12d7 33bb 2cba d23c ed55 94bc 0c69 2abd
00000110: 36ca 5e3b ee8d 33bd 3e4a 073c 2106 99bc
00000120: a1a2 9ab9 00e9 c4bb 4859 43bc 8d80 aabc
00000130: 13c6 db3a ae78 9d3c 6a17 e9bb f4e3 49bd
00000140: 4428 35bd abf9 ca3c bd4b c53c dfb3 e1bc
00000150: 4319 1ebc 5e87 ad3c d709 9a3c efd6 86bc
00000160: 70fa 99bc 5146 5abc 447d 903c f3fb 13bd
00000170: b88c 893c 9207 683c 7e24 403a 1ea7 973c
00000180: a066 97bc 4f7d e3bc ce22 b5bc 7682 f6bb
00000190: 857a cfbc 3267 153d 0d79 0b3b 3643 a33c
000001a0: 9856 9bbc b809 52bc c36e e7bb fa11 8c3c
000001b0: 47d9 a93c 1822 3e3c 3158 d13b be0a bdbb
000001c0: e182 b2bc 16aa fcba b2d6 a03c 4468 b0bb
000001d0: 1a71 aa3b b015 a7bc f9ea 3d3d 88e7 b3bc
000001e0: f967 0d3d f58d c23c 46c5 813a 2b43 95bc
000001f0: 92c8 adbc 0110 b93c 0b0c d8bb b959 7abc
00000200: 2020 543c 6601 c6bc 2979 b33c e53e 0a3d
00000210: a1d6 ccbc 4e7b 2e3d 840b 893c 6751 9d3c
00000220: 3c6f 8ebc b658 503c f584 9cba bfad 913c
00000230: 9b87 91bc 782e 8fbc 3537 403c fdc8 2c3c
00000240: 529c 753c f9e3 b0bc 7adf 2abc 4c62 013c
00000250: 4a96 c43c b9dc 8ebc baf2 04bc fd11 8a3c
00000260: 2aa5 08bc 338a 293c 7867 bfbc c357 ef3c
00000270: 9719 24bd 60a2 c0bc f58f 7f3c 22a5 90bc
00000280: 186d 8f3c 6aea f13c fbed a93c 924c d43c
00000290: 010d aa3c f37f cabc 42ac 873c e5b4 82bc
000002a0: de35 9f3c 2df1 873c 5341 d3bc 67e2 36bc
000002b0: 4531 90bc 9aea 0f3c cd1c 3a3d 7ec4 b9bb
000002c0: f092 933c e160 7f3c 322f b9bc 6e77 8b3a
000002d0: 0235 afbc 9271 a63c 8e06 23bd 74d8 a53c
000002e0: 944c 68bd 1438 7abc 5ffc 553d 3cdc 3a3c
000002f0: 20b1 963c 59e5 b0bc f916 b8bc 7fb2 b03c
00000300: ce57 13bc 8139 303d 44f9 14bd d265 39bc
00000310: b75b 47bc 17db efbc 8efb 91bc 8b76 29bd
00000320: 5573 bb3c 27ff 0fbd 0915 3abc 8977 36bd
00000330: c9db 253d 8a87 343d 54a7 4bbd f2d5 13bd
00000340: 913d 2cbd 2807 1e3d b786 4c3d 09ef 06bd
00000350: 3e1a 3dbd 13ce 323d 9e0e 323d ceb3 21bd
00000360: c93d 8fbc dac0 36bd e812 453d 592e 54bd
00000370: 2959 233d 8f14 213d 7175 cc3b 7244 2c3d
00000380: 87dd 23bd c0e8 2bbd 0084 2fbd b023 24bd
00000390: a535 15bd d1a9 3d3d 3f20 dcbc 95a6 173d
000003a0: 5148 24bd 3839 1fbd 5732 253d 1ee8 2c3d
000003b0: 1da2 4c3d 00fc d2bc 602a ae3b a184 94bb
000003c0: 4f0b 18bd 1ab5 39bd 76ea 323d 4384 6e3c
000003d0: a324 1e3d 1254 28bd fc44 163d d017 2cbd
000003e0: 4fc7 643d 60ed 553d 60c8 a1bc 2378 20bd
000003f0: 884d 46bd 31ec 1f3d 4236 f93b 2c32 22bd

action_net.bias f4 [18]
0.004173966 0.020451754 -0.018873226 0.040357742 0.0068081715 0.004837659 -0.02168019 -0.007307947
0.00931804 -0.007007157 0.022106586 -0.0011209189 -0.0102232 -0.036441803 0.000999684 -0.012804251
0.01772235 -0.008613555
00000000: c4c5 883b 708a a73c 069c 9abc 294e 253d
00000010: 1517 df3b 3a85 9e3b a79a b1bc 8177 efbb
00000020: b1aa 183c 4b9c e5bb df18 b53c cceb 92ba
00000030: 357f 27bc 0044 15bd d407 833a ecc8 51bc
00000040: 762e 913c de1f 0dbc

value_net.weight f4 [1, 64]
-0.033597335 0.21064223 0.22765183 -0.17508245 -0.12873957 -0.24467006 -0.078285776 0.22840655
-0.056047734 -0.056019306 -0.08222496 0.13337824 0.14415954 -0.19274598 -0.1475447 0.10821408
0.0726183 0.033682793 -0.23750873 0.1567736 -0.21052362 -0.07339887 0.19835262 0.2258081
0.23111193 0.19805758 0.18327665 -0.18987435 0.33818945 -0.096950285 0.07939396 -0.21935605
0.3167493 -0.067204766 0.17070217 0.13135166 0.19078776 -0.17125052 -0.0629931 0.040411927
0.23095939 -0.13440244 -0.15839283 -0.07382021 0.23991191 -0.25692344 -0.14001626 -0.08330019
-0.07667447 0.13044882 0.23227648 0.14318499 0.22991472 -0.11550226 -0.15553284 -0.10574937
-0.08154558 -0.09938487 -0.10004981 -0.12684591 0.10456335 0.31465185 -0.17928094 0.10447556
00000000: 5c9d 09bd 99b2 573e 901d 693e d048 33be
00000010: 4ed4 03be ca8a 7abe 4b54 a0bd 68e3 693e
00000020: 4f92 65bd 8074 65bd 8f65 a8bd 4e94 083e
00000030: 8f9e 133e 345f 45be f515 17be 589f dd3d
00000040: e7b8 943d f8f6 093d 7d35 73be 4289 203e
00000050: 8193 57be 2652 96bd f31c 4b3e 3d3a 673e
00000060: 9ba8 6c3e 9bcf 4a3e e0ac 3b3e 6c6e 42be
00000070: 2b27 ad3e df8d c6bd 4d99 a23d df9e 60be
00000080: f72c a23e a7a2 89bd 8dcc 2e3e 0d81 063e
00000090: de5d 433e 4c5c 2fbe 8702 81bd fa86 253d
000000a0: 9e80 6c3e cba0 09be bb31 22be 0d2f 97bd
000000b0: 78ab 753e 788b 83be 6c60 0fbe 4a99 aabd
000000c0: 8107 9dbd 6094 053e e3d9 6d3e 169f 123e
000000d0: c46e 6b3e 738c ecbd 0044 1fbe 2093 d8bd
000000e0: 5e01 a7bd 4b8a cbbd eae6 ccbd e5e3 01be
000000f0: 4f25 d63d 0c1a a13e 6c95 37be 48f7 d53d
